examples/marl/models/ippo/torch/MACS/seed_1_2025_1016_112601/best_model.pth (torch, 431093 bytes, 20 tensors)

actor_representation.pursuer_0.model.0.weight f4 [128, 272]
000000 98 9a 16 bd f1 45 4e bd d1 05 43 3d 34 ef cc 3c
       -0.036768526 -0.05035967 0.04761297 0.025016405
000010 c7 4d 09 3d 1d 18 2c 3d 6b db 2b bd a7 fd 03 3e
       0.03352144 0.042015184 -0.0419573 0.1288973
000020 8a 04 f0 3a 69 4f 1a 3c 07 3f 0f 3d c7 bb 8d bd
       0.00183119 0.009418347 0.034972217 -0.06920581
000030 79 1a 1e 3d 98 e0 1f bd 38 8e a9 bd 69 b7 fb bd
       0.038599465 -0.03903255 -0.08279079 -0.12290842
000040 7b c6 9a 3d 57 3a 57 3c b7 c4 34 bc b0 5f bd 3d
       0.075573884 0.013136468 -0.011033229 0.092467666
000050 d3 ff 80 bd b9 65 50 3d 54 0e 92 bd 1a 23 4d bd
       -0.062987946 0.05087826 -0.07131639 -0.050082304
000060 c2 96 3e bd 1d 6c 95 3d cf 13 df 3c 5e 35 02 3e
       -0.046530493 0.072960116 0.027231125 0.1271567
000070 97 00 97 ba 5e 74 19 be e2 26 61 bc 07 b4 4c bd
       -0.0011520562 -0.14985797 -0.013742181 -0.049976375
000080 91 7c 3c 3d 42 f1 1a 3c b8 24 2d 3e c9 7e 67 bd
       0.046017233 0.009456934 0.16908538 -0.056517396
000090 a9 a2 af bd 7d 42 59 3c ad eb e2 bd 2a 2e 2f bd
       -0.08575947 0.013260481 -0.11080108 -0.042768635
0000a0 58 13 96 bd a7 7a 8f 3d 1e 16 e5 bb 5a b3 17 3d
       -0.07327908 0.07005816 -0.006991162 0.037036277
0000b0 74 a9 82 bc 2d 05 95 3b af cc 5d 3d 3e 57 4f 3c
       -0.015949942 0.004547736 0.05415028 0.0126550775
0000c0 64 55 8e 3d 16 3f 6c 3d 60 89 6c bd 37 94 32 3d
       0.06949881 0.05767735 -0.0577482 0.04359838
0000d0 95 02 b6 3d 15 5e f1 bd 78 e8 34 bc 4a dd f4 bb
       0.08887211 -0.11785523 -0.011041753 -0.007472669
0000e0 85 5e b2 3d 70 05 54 bd 90 00 83 bc 8e a2 50 bd
       0.087094344 -0.051762998 -0.01599148 -0.050936274
0000f0 09 c1 ac 3a d6 ed e0 3d 23 e1 9b 3c 71 c1 aa 3c
       0.0013180088 0.109828636 0.019028252 0.020844193
000100 9b b5 a9 3c d6 7a dd bb 2c 66 01 3d bd 7b ca 3d
       0.020716479 -0.006759028 0.03159158 0.098868825
000110 7e 0c dc 3d d6 6e df bc ee ba 74 bd 8e 0f 18 bd
       0.1074457 -0.02727453 -0.059748583 -0.03712421
000120 a4 85 97 3c 8d a6 c4 3c 20 94 cc 3d f9 53 a0 bc
       0.018496342 0.024005199 0.0998919 -0.019571291
000130 7a 16 1b 3c d2 a0 c3 3c bc 04 21 bd 25 04 b6 3a
       0.009465808 0.023880396 -0.039311156 0.0013886733
000140 df 4f b4 bd 9b 9a 95 bd 99 4d f5 bd 5c 3b 81 bd
       -0.08804297 -0.07304879 -0.11977691 -0.0631015
000150 4a 88 6b bc f6 45 38 3d 4e ff 23 3d 1d 38 5d bc
       -0.014375756 0.044988595 0.0400384 -0.013502148
000160 b6 34 23 3d ee 83 b8 3c 8d 20 2e 3d b8 23 00 be
       0.03984519 0.022523846 0.04251151 -0.12513626
000170 6e 8c 93 bd 4c fd 18 bc 09 52 0c 3d 9a eb 8d bd
       -0.07204519 -0.009337734 0.034257922 -0.06929703
000180 cd 5c d3 3a bc 0b 22 bd 50 6e ba bd f1 4f c2 bc
       0.0016125679 -0.039561972 -0.09103072 -0.02371976
000190 2e df 06 3d d9 63 64 3d 30 c5 73 3d 58 03 f7 3d
       0.032927684 0.055759285 0.059514225 0.12061185
0001a0 d2 3a 52 3d d7 13 95 bc 93 60 70 bd d8 6d d3 bd
       0.051325627 -0.018197937 -0.05868585 -0.103236854
0001b0 f5 b4 a9 bc 42 bd 14 3d 3e 31 0f 3c 0c 57 42 bd
       -0.02071617 0.036313303 0.008739768 -0.047446296
0001c0 fb de eb 3b 18 fc c3 bd 18 d8 8d 3d 4d 07 79 3d
       0.007198212 -0.095695674 0.06925982 0.06079798
0001d0 f6 0c 14 bd af 9d 9c bd ec 58 c4 3d 21 63 33 bd
       -0.036145173 -0.07647263 0.09587273 -0.04379571
0001e0 d6 b3 b7 bd 78 64 e3 bb c2 b1 c5 bd 33 63 ab bd
       -0.08969848 -0.006939467 -0.09653045 -0.0836853
0001f0 29 9c 62 bd 08 ec f0 3d 76 bd 7e 3d 2d c4 a0 3d
       -0.055324707 0.117637694 0.062192403 0.078499176
000200 5f 65 58 3d 4b 97 05 3e ce bd cb 3c 20 e8 78 bb
       0.05283105 0.13045995 0.02487078 -0.0037980154
000210 4e 16 83 3d 60 0e 1e 3d e2 b4 9f 3b 53 48 8b bd
       0.06400739 0.038587928 0.004873858 -0.06800904
000220 f7 39 16 3e 69 11 04 3d cb 3d a9 bd 90 df 49 bd
       0.1467055 0.032243166 -0.08263739 -0.04928547
000230 69 e4 b3 bd ef 87 32 bd 76 97 bf bd 5d a1 ac bc
       -0.087838 -0.043586668 -0.09355061 -0.021073038
000240 50 cd 37 bc fe 8e 9e 3c c5 4b a1 bd 3f dd 68 3c
       -0.011218384 0.019355293 -0.0787578 0.014212905
000250 c7 bc 2d 3b 64 bd 7c 3d 4a c4 36 3d 7d fe ae 3d
       0.0026510225 0.061704054 0.04462079 0.085446335
000260 f0 65 cd bd 7c 10 8b bd 75 db 75 3d a9 19 37 3c
       -0.10029209 -0.067902535 0.060023744 0.011175551
000270 9a bb 95 bd b2 a2 c6 bd 0f 8a 73 bc f0 2d e8 bb
       -0.07311173 -0.096990004 -0.014864459 -0.0070855543
000280 06 0c 97 bb 32 e3 28 3c 99 9b 81 3d 9e 00 af 3d
       -0.0046095876 0.010308074 0.06328506 0.085450396
000290 f2 8a d7 38 64 93 fd bd 98 f1 6e bd 3b 69 df bc
       0.000102778795 -0.12381628 -0.05833587 -0.027271857
0002a0 56 22 5d 3d 3a c8 47 bd e9 2a 41 3d 92 48 20 bd
       0.053987823 -0.048774935 0.047160063 -0.03913171
0002b0 3a 8d d2 bc 51 0f 4d 3d 1c ab 7a 3b 36 f7 a1 bd
       -0.025702108 0.050063435 0.0038248962 -0.0790848
0002c0 75 7b 84 3c 69 5d 3d bd be 54 b2 3d 2f 6c de bd
       0.01617215 -0.04623166 0.087075695 -0.10860478
0002d0 73 bd e7 3a 27 a9 3f 3d 75 7f 31 3d 65 74 21 3d
       0.0017680362 0.046792176 0.043334443 0.039417643
0002e0 fe b4 24 be fa 5d 11 3e f9 ad 58 3c 29 1c 85 bd
       -0.16084668 0.14196005 0.013225072 -0.06499512
0002f0 d5 d0 5a 3d 65 54 34 3d 98 2d 98 3d a0 2e 33 bd
       0.053421814 0.044025797 0.07430571 -0.043745637
000300 2d 0a 11 3d bf 4d 93 3c cd a0 92 3b c9 3b 2b 3d
       0.035410095 0.017981408 0.0044747354 0.041805062
000310 8e eb a1 bd 12 8c fb 3c 9f 50 9a 3d b9 76 1b bd
       -0.079062566 0.03070644 0.075349085 -0.03795502
000320 e0 33 59 3c 2d 59 34 3d 7e 86 0a 3d 75 ae 0a 3d
       0.013256997 0.044030357 0.033819668 0.03385778
000330 97 9c 99 bb 50 27 5b bd b7 28 9e bd e9 a9 1a 3d
       -0.0046878564 -0.05350429 -0.077226095 0.037759695
000340 63 4f 51 3d 2f 43 05 bd b0 82 6e 3d 25 59 31 3c
       0.0511011 -0.032534774 0.058230102 0.010824476
000350 88 0a a0 bc 43 aa a4 bd 87 e0 db 3a eb af bd bd
       -0.019536272 -0.08040287 0.0016775288 -0.09262069
000360 8a b2 96 bd 83 9d 11 bd 93 ea c2 3c a1 ea 91 3c
       -0.073582724 -0.035550606 0.023793494 0.017812075
000370 71 4b b6 bd 6c f6 de bc 92 33 2c 3d 75 8a 20 bd
       -0.08901108 -0.027217112 0.04204137 -0.039194543
000380 0b e5 12 bc 89 41 12 be eb 8e 10 3d 5c 59 a4 bd
       -0.008965741 -0.14282812 0.035292547 -0.080248564
000390 c8 ae f8 bd e5 0b 01 bd c5 76 05 bc e5 83 55 3c
       -0.12142712 -0.031505484 -0.008145993 0.013031934
0003a0 05 ca 8f bc 81 31 81 bc c2 19 0c 3b da ac aa bd
       -0.017552385 -0.015770676 0.0021377658 -0.0833375
0003b0 04 42 01 bd e5 65 c5 3c 62 9a af bb f6 83 96 3c
       -0.031557098 0.024096439 -0.00535898 0.01837347
0003c0 4a da 59 bc b6 f1 34 bd c1 59 cb bc 1f cb 5b bd
       -0.013296673 -0.044175826 -0.024823071 -0.05366051
0003d0 ca a5 b8 bc 49 8f 19 bd 28 3c b2 bb 7f c5 43 3c
       -0.022539992 -0.037490163 -0.0054393 0.011948942
0003e0 07 19 11 bd 7a 55 de bd 2e 29 36 3d 52 8b 81 bd
       -0.03542426 -0.10856147 0.044472866 -0.06325401
0003f0 0d 8b e3 bd 10 64 1b 3d 1c f8 62 3d 1a 4d 10 b9
       -0.11110506 0.037937224 0.055412397 -0.00013761633

actor_representation.pursuer_0.model.0.bias f4 [128]
000000 da 5f 76 3b 1b 27 f5 ba e5 b5 24 3b ce 87 b9 bb
       0.0037593753 -0.0018703671 0.0025132832 -0.005661941
000010 52 89 fa bb 93 b4 a7 bb 3d 4c 08 bb 2b f0 c3 bb
       -0.0076457644 -0.0051179617 -0.0020797395 -0.005979558
000020 b8 fe c6 bb 74 e6 bd bb 75 d7 9b 3a 69 58 ed bb
       -0.0060728453 -0.0057952944 0.0011889773 -0.0072432053
000030 c7 b2 18 bb c7 15 8d bb 8a 89 d2 bb 36 f9 02 bb
       -0.002329992 -0.0043055746 -0.0064250873 -0.0019984967
000040 b6 c2 a9 bb 1d dc a4 bb 95 2f 4f b9 09 fa 24 3c
       -0.005180682 -0.0050311224 -0.00019758784 0.010069379
000050 e0 d7 01 39 d4 c8 ce bb 8f 96 0b bc 21 8d 14 3b
       0.00012382818 -0.0063105617 -0.008519783 0.0022667127
000060 d1 ea ea 39 1a 36 30 bb cd 59 47 bb 08 ca 94 bb
       0.0004480691 -0.0026887716 -0.0030418516 -0.0045406856
000070 16 9a 94 bb c8 2e c6 3b fc 0f ad bb 81 c2 ea 3a
       -0.00453497 0.006048057 -0.0052814465 0.001791075
000080 28 d1 97 bb 2f 91 f1 ba fc 14 57 3c e8 ea 15 3c
       -0.0046330877 -0.0018430109 0.013127562 0.009150244
000090 5c d2 a9 bb 51 64 5d bb 39 1a cb bb 24 47 79 3b
       -0.0051825475 -0.0033781717 -0.0061981943 0.0038036788
0000a0 c4 60 9c bb a4 59 cd bb 5d c6 c0 bb 55 0e a1 bb
       -0.0047722775 -0.0062667895 -0.0058830217 -0.0049150386
0000b0 ba 4e 85 bb 59 a2 04 bb 22 bc ad bb d5 f0 b6 bb
       -0.004068223 -0.0020238368 -0.005301968 -0.0055829086
0000c0 50 6e cf bb 3a a8 1d bb 7d b3 84 bb ef f2 a9 bb
       -0.006330289 -0.002405657 -0.004049717 -0.0051864306
0000d0 1c c2 31 bb 33 9a 98 bb 5b 9f 6d bb 9a f3 69 ba
       -0.0027123755 -0.004657054 -0.0036258313 -0.0008924544
0000e0 a4 bc 79 bb 1d a3 48 bb cf dc 68 3b 81 a3 56 bb
       -0.0038106823 -0.0030614801 0.0035532003 -0.0032751265
0000f0 3c a7 bc bb 71 a7 45 ba c9 8b a7 3b 7d 89 c1 bb
       -0.0057572406 -0.00075399043 0.0051130992 -0.0059062825
000100 d5 8c 6e 3b 83 18 17 ba 46 08 0a bc 17 5c 08 3b
       0.003639986 -0.00057638454 -0.008424824 0.0020806843
000110 9b fd c8 bb f0 2b 5f bb 7e f6 1b 3b 63 b0 63 3a
       -0.0061337478 -0.0034053288 0.0023798044 0.00086856465
000120 4f 90 03 ba 95 46 11 39 f5 5b a6 bb ca db 1a bb
       -0.0005018757 0.00013854571 -0.00507688 -0.002362954
000130 15 1b 5e ba 2f 1f b8 ba 6a 09 19 bb 07 bf 91 bb
       -0.00084726635 -0.0014047379 -0.0023351558 -0.004447821
000140 7f 4f 90 bb f1 c0 c9 bb 75 f6 38 bc 80 28 a8 bb
       -0.004404008 -0.0061570336 -0.011289229 -0.005131781
000150 13 37 8d bb 92 83 1a bc c2 81 b7 bb 33 53 11 39
       -0.004309544 -0.009430783 -0.005600185 0.00013859272
000160 6c 9f 02 3b 66 da 9b ba a6 6b 2b bb 36 3c 98 bb
       0.0019931449 -0.0011890649 -0.0026156693 -0.0046458496
000170 64 d8 a6 38 61 34 a9 3a d1 d6 14 ba 1a 14 50 3b
       7.955803e-05 0.0012909287 -0.0005677762 0.0031750263
000180 23 cd 03 bc c4 91 13 3b cb d2 a8 bb 23 ad ae bb
       -0.008044514 0.0022517303 -0.0051520816 -0.005330698
000190 89 b5 9f 3a 0f 0d 7e bb 0f e2 a7 bb 61 16 bc bb
       0.0012184839 -0.0038765108 -0.005123384 -0.0057399725
0001a0 43 65 c4 bb f9 2f cd ba bc 26 09 bb 78 98 0d b9
       -0.0059935167 -0.0015654556 -0.0020927629 -0.00013503607
0001b0 e7 6d 04 bb 0e 6c ac bb 52 08 48 bb 4c 2a 9a bb
       -0.0020207108 -0.0052619046 -0.0030522537 -0.004704749
0001c0 0f 43 15 bc 2b 44 ea 3a 75 c0 d5 bb ef 17 97 bb
       -0.009110226 0.0017873099 -0.006523187 -0.0046110074
0001d0 34 da 98 3b 16 3c 04 bb c8 d8 4c ba 3e e8 99 bb
       0.0046646837 -0.0020177416 -0.00078142853 -0.004696875
0001e0 f4 9f c1 bb d8 56 83 bb 48 92 3b 3b 66 da 3c bb
       -0.0059089605 -0.0040081553 0.0028621126 -0.00288167
0001f0 8c 31 db bb a4 40 03 bb a4 96 e5 ba fa 9c a0 bb
       -0.006689256 -0.0020027542 -0.0017516208 -0.0049015256

actor_representation.pursuer_0.model.2.weight f4 [128]
000000 75 2d 81 3f 61 c3 81 3f 67 4b 83 3f 94 45 7f 3f
       1.0091997 1.013775 1.0257386 0.9971554
000010 5e fd 7d 3f 84 9b 7b 3f d1 22 82 3f 50 00 80 3f
       0.9921473 0.98284173 1.0166875 1.0000095
000020 73 0e 7f 3f 99 03 7f 3f 92 8e 7c 3f 60 ca 7d 3f
       0.9963142 0.99614865 0.98655045 0.99136925
000030 7e 9e 7f 3f b5 e3 7d 3f 54 07 79 3f cf 38 83 3f
       0.99851215 0.9917558 0.97276807 1.0251712
000040 50 3a 7f 3f 70 fc 7c 3f 18 05 7e 3f a6 b3 7d 3f
       0.9969835 0.9882269 0.9922652 0.99102247
000050 99 42 79 3f e9 24 7d 3f 0d 93 7d 3f 1d ac 80 3f
       0.97367245 0.98884445 0.99052507 1.0052525
000060 11 34 76 3f 9d 4c 82 3f 6a 6b 7e 3f 38 47 7b 3f
       0.961732 1.017963 0.9938265 0.98155546
000070 5e f0 7f 3f 56 25 81 3f a5 d0 7f 3f bd 09 84 3f
       0.99976146 1.0089519 0.9992774 1.0315472
000080 ba 36 80 3f 06 71 7c 3f 88 9a 7d 3f 3d 7d 7d 3f
       1.0016701 0.9860996 0.9906392 0.99019223
000090 96 63 80 3f db 35 80 3f 0b c5 7f 3f e2 4b 85 3f
       1.0030391 1.0016435 0.9991004 1.0413783
0000a0 ee 94 7f 3f 39 15 80 3f 64 d5 7e 3f 09 69 7f 3f
       0.99836624 1.0006477 0.9954436 0.99769646
0000b0 1b 11 7f 3f 7e 45 80 3f 04 49 7d 3f c0 cb 7f 3f
       0.99635476 1.0021207 0.9893954 0.9992027
0000c0 29 d2 7a 3f 72 a4 7e 3f dc bf 7f 3f 47 ea 7f 3f
       0.9797693 0.99469674 0.9990213 0.99966854
0000d0 22 3a 80 3f f3 e7 7e 3f 70 25 7f 3f 60 21 7e 3f
       1.0017741 0.99572676 0.996665 0.99269676
0000e0 6e 78 80 3f 22 05 80 3f 4b 72 7e 3f 8a 2d 7d 3f
       1.0036752 1.0001566 0.9939315 0.9889761
0000f0 a2 70 7f 3f cd 2b 7d 3f 1a 26 80 3f 30 82 7e 3f
       0.9978124 0.9889496 1.0011628 0.994174
000100 0f 5b 81 3f 76 c3 82 3f c9 59 7f 3f 8b ab 83 3f
       1.0105914 1.02159 0.99746376 1.0286726
000110 f1 56 7c 3f 21 ae 81 3f f1 19 82 3f bc 07 85 3f
       0.9857016 1.0131265 1.0164167 1.0392985
000120 9b 1d 78 3f 79 3b 82 3f 84 10 80 3f 13 d1 7d 3f
       0.96920174 1.01744 1.000504 0.99147147
000130 cc 43 80 3f be b0 80 3f 00 43 7f 3f c1 96 7e 3f
       1.002069 1.0053937 0.9971161 0.9944878
000140 d6 22 7f 3f 1b 35 7b 3f e5 56 80 3f 4f 02 7d 3f
       0.9966253 0.9812791 1.0026518 0.9883165
000150 6a 28 7f 3f e3 45 7e 3f 59 47 80 3f a2 02 81 3f
       0.9967104 0.9932539 1.0021774 1.0078928
000160 9f af 7f 3f cf 22 81 3f 86 32 81 3f 58 68 80 3f
       0.9987735 1.0088748 1.0093544 1.0031843
000170 ac 42 7f 3f e0 7c 84 3f 84 3b 7f 3f 36 7a 81 3f
       0.9971111 1.0350609 0.9970019 1.0115421
000180 57 5f 7b 3f 8c c3 81 3f 4d fc 80 3f 8c c2 7e 3f
       0.9819235 1.0137801 1.0076996 0.99515605
000190 c2 ac 7f 3f 07 90 7c 3f 53 f1 7d 3f 45 cf 7b 3f
       0.9987298 0.9865727 0.99196357 0.98363143
0001a0 c8 63 7c 3f 38 22 81 3f e0 e4 7b 3f 54 0e 86 3f
       0.98589754 1.0088568 0.9839611 1.0473123
0001b0 b0 30 7d 3f 96 8e 80 3f 8a cd 7f 3f da 48 81 3f
       0.98902416 1.0043514 0.99923 1.0100358
0001c0 c4 84 7e 3f 90 68 82 3f 77 bc 7e 3f 6d b0 80 3f
       0.99421334 1.018816 0.99506325 1.0053841
0001d0 3a ed 81 3f 26 35 7e 3f 8f 16 84 3f 6e d9 80 3f
       1.0150521 0.9929985 1.0319384 1.0066354
0001e0 a6 a7 7a 3f 31 fa 7f 3f fe 70 7f 3f 87 4c 81 3f
       0.9791206 0.99991137 0.9978179 1.0101479
0001f0 8b 6a 80 3f e2 58 80 3f 80 85 80 3f ab c4 7e 3f
       1.0032514 1.0027125 1.0040741 0.9951884

actor_representation.pursuer_0.model.2.bias f4 [128]
000000 44 c9 06 3b 34 7e 03 3b 93 0c 97 bb 62 aa 26 3b
       0.002056674 0.0020064237 -0.0046096533 0.0025431146
000010 0a 8d 99 3b 63 26 8f 3c 9b 90 8b bb fa e9 9c 3a
       0.0046860026 0.017474359 -0.0042591817 0.0011971586
000020 af 37 37 3b 09 93 75 3b e1 08 59 3b f9 5d e9 3b
       0.0027956774 0.0037471673 0.0033116865 0.007121798
000030 d7 31 1f bc 58 6e f2 3b 93 90 d1 3c 23 a9 eb 3a
       -0.009716473 0.007398408 0.025581634 0.0017979484
000040 0c f7 22 bb 8c d8 d2 3b 6b 32 b3 b9 bf 89 45 3b
       -0.002486649 0.006434506 -0.00034179105 0.0030141918
000050 8a 0b c3 bb 3b 7c 1c 3c 31 22 27 3c 64 99 8b bb
       -0.0059523033 0.009551103 0.010201023 -0.004260229
000060 7a a3 97 b8 a5 ec 4c bb a9 04 a9 3b bb b7 04 3c
       -7.230691e-05 -0.003126898 0.0051580262 0.008100445
000070 2e 6e d9 bb 93 b6 50 bb 83 bc a2 b8 c4 e2 bc bb
       -0.006635449 -0.0031847104 -7.759875e-05 -0.0057643373
000080 ce ef 09 38 37 03 6c 3c af 0e 31 3b 90 f6 be 39
       3.288668e-05 0.014405063 0.0027016809 0.00036423327
000090 b1 a1 36 bb df 97 27 bb 43 71 16 ba a1 cf b1 ba
       -0.0027867372 -0.00255727 -0.0005738923 -0.0013565907
0000a0 47 c4 0d 3b 42 9e dd ba 98 27 43 3b bc f8 59 3b
       0.0021631883 -0.0016908126 0.0029778238 0.003325983
0000b0 84 a9 4f 3b 2e 39 c0 ba e7 ae 16 3c 43 e9 d6 3a
       0.0031686733 -0.0014665478 0.009196973 0.0016396422
0000c0 12 78 7e 3c 9c da 62 ba e4 85 9a 3a 4c 37 9a 3b
       0.015531557 -0.0008653791 0.001178917 0.004706299
0000d0 3a 14 3e ba 3b f6 8d 3b 5c f8 bf 3a 92 13 43 bb
       -0.0007250939 0.0043323315 0.001464616 -0.0029766303
0000e0 7e d4 48 bb ad 2d e6 ba 10 77 5d ba 2d fc 2d bb
       -0.0030644233 -0.001756122 -0.00084482227 -0.0026548014
0000f0 2f 9b 1e 3a f2 e5 7c 3b 39 b0 b9 ba d1 50 a3 3b
       0.0006050346 0.0038589207 -0.0014166898 0.0049839993
000100 c0 45 ed 3b 04 64 a8 ba c1 56 08 bb 0e 0c 1a 39
       0.007240981 -0.001284719 -0.0020803662 0.00014691075
000110 82 ab 4a 3c 5f c0 93 bb d6 be 2e 3b 39 00 f4 ba
       0.012369992 -0.0045090164 0.002666404 -0.0018615789
000120 7b 47 9e 3b 15 07 55 3b b2 ea 9c 3b aa e9 cb ba
       0.0048302985 0.0032505442 0.00478872 -0.0015557308
000130 6a 22 73 ba 12 a7 83 b9 6f 87 25 3b c6 20 9f 3b
       -0.00092748425 -0.00025110744 0.0025257727 0.004856202
000140 ed 3f 35 3b 24 0a 9e 3c ea b8 9a bb 0b c7 2a bb
       0.002765651 0.019291945 -0.0047217505 -0.002605858
000150 a1 0c 55 3b b3 70 a8 ba 27 5f 50 b9 a1 2e ed bb
       0.0032508748 -0.001285097 -0.00019871873 -0.0072382246
000160 4d 23 da bb 3b e3 18 bc e0 08 2b bc da 73 d1 bb
       -0.00665704 -0.00933152 -0.010439128 -0.0063919844
000170 f2 2b b0 b7 80 09 23 bc 84 28 88 3b bf e3 df b9
       -2.1001299e-05 -0.009950995 0.0041552205 -0.0004270356
000180 86 88 b7 b9 75 9b 92 ba d5 15 03 bc 0a b7 9d 3b
       -0.00035006198 -0.0011185246 -0.008000811 0.0048130797
000190 dc 0e 65 bb 87 9e 65 bb 25 60 de 3b 25 3a 43 3c
       -0.0034951484 -0.0035037117 0.0067863637 0.011915718
0001a0 3f 5d 0b ba 9f 1a 80 3a 15 16 53 3c 38 26 ee 3a
       -0.0005316324 0.0009773559 0.012883683 0.0018169349
0001b0 ee eb 25 3c b5 9c 91 bb 26 b1 5b 3a 93 b7 22 bc
       0.010127051 -0.0044437298 0.0008380584 -0.009931463
0001c0 06 3d 93 39 94 db 05 bc 30 3a c7 3b 12 84 a1 bb
       0.0002808349 -0.008170027 0.0060799345 -0.004929074
0001d0 47 57 56 bb cc 7c e1 3b 7d 43 f2 b9 14 e4 7d ba
       -0.003270583 0.006881332 -0.0004620812 -0.00096851704
0001e0 62 c2 15 3c b5 f0 3e 3b 23 ea 03 bb 64 fb 09 bb
       0.009140583 0.0029135172 -0.002012857 -0.0021054382
0001f0 64 9e 2f ba c1 6a 8c bb 10 fe a2 bb 76 25 ae 3b
       -0.0006699322 -0.004285187 -0.0049741343 0.0053145243

critic_representation.pursuer_0.model.0.weight f4 [128, 272]
000000 e8 53 cc 3d 95 8f 95 bd e8 bf 99 bd 96 75 b3 3c
       0.09976941 -0.07302777 -0.07507306 0.021906655
000010 9d 3f 89 3d f0 a7 01 bd eb df 93 bd 6d 38 94 bc
       0.067015864 -0.0316543 -0.07220443 -0.018093312
000020 dc 54 fc 3b 8a 4f 0e bc fd cc da 3d 81 b2 2a 3a
       0.0077005457 -0.008685956 0.1068363 0.00065115845
000030 cd db 2f 3b 63 41 7c bd 9e ba 3e bc 58 25 99 bd
       0.0026833892 -0.061585795 -0.011641173 -0.07477826
000040 1e 4e 1e 3c fb 7b c5 bc 4a 21 8b 3d 79 fb ed bc
       0.009662179 -0.02410697 0.06793459 -0.029050576
000050 45 1c e2 bd 30 dc 6a bc 05 6a 74 3c 4e ce d6 bd
       -0.11040548 -0.014334723 0.014917855 -0.10488568
000060 19 e8 0a bc 37 41 1a bd 7f 6e 0c bd ce dd 15 3d
       -0.008478188 -0.03765985 -0.034285065 0.036588483
000070 ac 28 09 bd 7a 5d 02 3e d0 0a 0b 3c e5 5d 6a bd
       -0.033486053 0.12730971 0.008486465 -0.05721845
000080 90 2d 1b bc e5 a5 62 3d c1 3f 80 bd cd bd d6 bc
       -0.009471312 0.05533399 -0.0626216 -0.026213551
000090 ec 2d cb bd 6d 53 02 3d 98 b2 59 3d 18 3d 80 bd
       -0.09920868 0.031817842 0.053148836 -0.06261653
0000a0 7f 21 cb 3d e7 77 26 3e 97 ba 41 3d 66 cf 50 3c
       0.09918498 0.16256677 0.047297087 0.01274476
0000b0 f7 0e 41 bb 23 e6 dd 3c 57 e5 b4 bd 4c f5 22 3d
       -0.0029458383 0.027087277 -0.088328056 0.039784715
0000c0 0a ad f8 bc 7c 84 ac 3c 09 1a 27 3d 84 36 fc 3c
       -0.030355949 0.021059267 0.040796313 0.030787714
0000d0 ec f7 8e 3b b5 7d 60 bd f2 03 8b bd 79 5b de bc
       0.0043630507 -0.054807384 -0.06787862 -0.027143227
0000e0 1e e3 16 bc c2 13 49 3d 4e 87 98 bd b4 5e 39 3d
       -0.009209422 0.04909111 -0.07447682 0.04525633
0000f0 69 7e c3 bd e6 73 59 bd 3f 95 b0 3d 5a 90 9a bd
       -0.09545595 -0.053089045 0.086222164 -0.07547064
000100 ae cd 86 3d 3b 1a aa bc 46 37 a0 3d 7d bb 83 bd
       0.06582199 -0.02076446 0.078230426 -0.06432245
000110 9a cd f2 3d 10 dc 18 3d 38 3b 5e 3d 1f e1 2e bd
       0.11855622 0.037319243 0.054255694 -0.04269516
000120 cc 69 9a 3d 93 70 62 bd f3 59 0c be 83 97 dd bc
       0.075397104 -0.05528314 -0.13706188 -0.027049785
000130 54 33 09 3d 51 44 29 be 6e 3e 2f 3d 91 31 6d 3d
       0.033496216 -0.16529967 0.042784147 0.0579086
000140 70 97 67 3d ba 9c 02 bd 89 b3 df bd e8 84 38 bd
       0.056540906 -0.031887747 -0.109229155 -0.045048624
000150 71 fa a2 3d e6 a5 97 bd 43 41 19 3d ff 96 e7 bc
       0.07957924 -0.074046895 0.037415754 -0.028270243
000160 3d 4a 67 3c 2b f6 ca 3c 0c ef d7 bc 19 8a 5c 3c
       0.014116821 0.024775585 -0.026359104 0.013460659
000170 e0 3b 88 bd a7 37 23 bd 30 96 a8 bd 7d 41 77 3d
       -0.06652045 -0.039847996 -0.08231771 0.06036519
000180 45 39 b4 3d 8d 22 12 bd 29 c4 b4 3d 16 40 c9 bd
       0.08799986 -0.03567748 0.08826477 -0.098266765
000190 9a 2e 98 3d d0 73 26 3c db 27 c3 bd 65 70 35 bd
       0.074307635 0.010159448 -0.09529086 -0.04429664
0001a0 86 2a 81 3d 8d 5c 66 bc c7 d5 ac bc 06 fc dd 3c
       0.06306939 -0.014060152 -0.02109803 0.027097713
0001b0 07 c2 64 bc c9 f0 6f bc 4b d3 54 bd 9b a5 6e 3d
       -0.013962275 -0.01464481 -0.051959317 0.058263402
0001c0 95 a0 02 3b c4 23 27 3c 01 21 56 bd 8d 59 52 bd
       0.001993214 0.010201398 -0.05227757 -0.051354934
0001d0 85 14 9a 3d a6 c5 1b be ce e9 00 bd 79 ab b1 3b
       0.07523445 -0.15212116 -0.031472974 0.0054220525
0001e0 f7 27 5e bd 72 b0 02 be a7 e4 4e 3b b1 ca b9 3d
       -0.054237332 -0.12762621 0.0031569393 0.090718634
0001f0 46 d9 cc bd 91 34 a6 bc 5a 1a 70 3d 88 db 14 3d
       -0.10002379 -0.020288737 0.05861888 0.036342174
000200 42 19 9b bb 67 82 4c 3d 7a e4 5e bc 8a f2 50 bc
       -0.0047332356 0.04992905 -0.013604278 -0.012753138
000210 22 81 95 3d 93 1d 14 bd 73 b4 de 3c 91 a7 89 3c
       0.07300021 -0.036161017 0.027185654 0.016803535
000220 84 b0 cf bd 4b 04 c7 3c fb 95 8d 3c 5d d7 ea 3c
       -0.101410896 0.02429404 0.01728343 0.028667146
000230 59 de 86 3d 45 99 06 bd 15 af 2a bc 1a 7a fa 3c
       0.06585378 -0.032861013 -0.010417719 0.0305758
000240 2b a7 93 bd 32 22 a7 bd 2d b7 95 bc 3c 43 8b 3d
       -0.07209619 -0.08160819 -0.018275822 0.06799933
000250 45 3a 38 3d 47 4d d8 3b 29 81 c9 3d a6 9d 62 3b
       0.044977445 0.006601009 0.098390885 0.003457883
000260 87 2e 46 3d ec f2 6e bd e3 00 0c 3e 68 d7 87 bc
       0.048384216 -0.058337137 0.13672213 -0.016582206
000270 71 f6 10 bd 2e 66 70 3c a3 52 60 bd 1f d8 1f bd
       -0.035391275 0.014672799 -0.05476631 -0.03902447
000280 70 af 04 3d d8 d9 15 be 30 21 ec 3c f9 e9 86 bc
       0.032393873 -0.14633882 0.028824419 -0.016468989
000290 c0 d3 3c bd d2 be 1f 3d 16 b8 93 3d ed ab bf 3d
       -0.046100378 0.03900034 0.07212846 0.09358964
0002a0 45 f3 b7 bd 0c 36 37 3d 7a 2f 1c bd 1c e8 33 bc
       -0.08981947 0.044729277 -0.038131215 -0.010980632
0002b0 c1 d8 04 bd 55 8d 90 3a a9 a3 91 bd 96 b7 3c bd
       -0.032433275 0.0011028448 -0.07111294 -0.04607352
0002c0 23 62 1a 3d 1c 6d 8e 3b 89 0d 73 3c 4c fb cd bd
       0.037691247 0.004346503 0.01483477 -0.10057697
0002d0 dd 6a 4a 3b 2d 06 bd 3c 6c d8 df bd 97 f0 a1 3d
       0.003088645 0.023074234 -0.10929951 0.07907217
0002e0 2e 6c d2 3d ba 22 e4 3c 90 7f 08 3d 3f 77 c2 3d
       0.1027454 0.02784859 0.033324778 0.09495401
0002f0 5a 16 19 bd a6 c0 14 3e bb 3a aa b9 db d2 60 3d
       -0.03737483 0.14526615 -0.00032468684 0.054888587
000300 a7 f3 89 3d a7 ae 26 3d 0e 68 90 3d 00 43 a0 bd
       0.06735926 0.040693905 0.07051097 -0.07825279
000310 ff 34 b2 bc b9 57 d2 3a 93 30 54 bd 31 87 1b 3c
       -0.021753786 0.0016047872 -0.051804136 0.009492681
000320 4a 79 7b bd 16 6f 97 bd 8c 4a 44 3d 87 43 70 3d
       -0.061394967 -0.07394235 0.047922656 0.05865815
000330 40 84 80 3d fd a1 fc 3b b7 58 d9 bc d3 14 30 3d
       0.06275225 0.00770974 -0.02653156 0.04298861
000340 ac 40 9d bc 65 8a b4 3d 71 0e 60 bd e4 de 97 3d
       -0.019195877 0.08815459 -0.054701272 0.0741556
000350 be e8 b0 bd 43 c4 10 be d7 56 4c bd f8 61 2b 3c
       -0.08638142 -0.14137368 -0.049887504 0.010460369
000360 e7 33 a0 3d b8 63 25 3d dd ee 88 3c a4 15 49 3b
       0.078223996 0.040378302 0.016715461 0.0030683065
000370 5e e2 9a 3d b7 f4 cd 3d 93 4c 1d bd d0 61 52 3d
       0.07562707 0.10056441 -0.038403105 0.051362813
000380 00 a0 57 3b 49 68 e4 3b e0 5e 9b bd fe 27 6a bd
       0.0032901764 0.0069704396 -0.07586455 -0.057167046
000390 74 e1 1b 3d e9 ed 1b bd a7 fb 80 3d d7 8a 2a 3d
       0.038056806 -0.038068686 0.06297999 0.041636314
0003a0 49 d8 33 3d f5 64 f8 3c 77 93 80 bd 4b c8 ea 3c
       0.043907437 0.030321578 -0.06278127 0.02865996
0003b0 eb 96 92 3d 3f 2e bd bd 66 22 1a be 1d 42 32 3d
       0.071576916 -0.09237336 -0.15052184 0.04352008
0003c0 4b 78 d1 3b 3d cb 38 bd cf 99 3d 3c fe 0f 4f bd
       0.006392514 -0.045115698 0.011572315 -0.05055236
0003d0 35 a6 06 3d 05 2c f4 bd db 27 4b bd 8e 83 41 bc
       0.03287335 -0.119224586 -0.049598556 -0.01181115
0003e0 4f 95 67 3d 45 85 33 39 9e b9 fe bc b0 5b 19 bd
       0.056538876 0.00017120417 -0.031094369 -0.037440956
0003f0 f6 53 15 3c 01 98 b3 bb 46 e3 e8 3c 19 84 b3 bd
       0.009114256 -0.0054807668 0.028428685 -0.0876543

critic_representation.pursuer_0.model.0.bias f4 [128]
000000 46 8c 79 bc bc 7c 77 3c 48 c3 a6 bb 39 05 ab bc
       -0.015231198 0.015105423 -0.0050891973 -0.020876514
000010 88 d4 f0 bb d1 0f a6 3c ca 8a af 3c 68 c7 c8 bb
       -0.0073495544 0.020271214 0.021428484 -0.0061272867
000020 ff 26 07 bc 18 0a 88 3c ac 55 40 bb 3d 73 42 3c
       -0.0082490435 0.016606376 -0.002934794 0.011868295
000030 ba df 8d bb 7e 15 98 3b 25 02 96 3c d7 f6 83 bc
       -0.004329649 0.004641234 0.01831157 -0.016108913
000040 1e 15 3f bc a4 89 ec bb b9 38 89 bb ed 85 29 b9
       -0.01166275 -0.0072185565 -0.00418767 -0.00016166987
000050 b2 6b 17 bc e0 c0 02 bc 00 65 72 bb 8f d1 de 3b
       -0.009241985 -0.007980555 -0.003698647 0.0067998837
000060 f3 a8 df 3b 6d 76 ff 3b b0 d2 4b 3c 61 7a 26 bc
       0.0068255602 0.0077961 0.0124403685 -0.010161013
000070 04 7a 08 bc f3 d4 4d bc b6 03 91 bb b9 09 e2 bb
       -0.008329872 -0.012562978 -0.004425491 -0.0068981317
000080 65 26 a8 3c ac ec ce 3c 5c 41 9f bc 6d 59 01 bc
       0.02052612 0.025259338 -0.019440345 -0.007894856
000090 5b 35 0a bb 50 6a 99 3c e4 66 d8 bb 1c d7 41 bb
       -0.0021088931 0.018727452 -0.0066040624 -0.0029577678
0000a0 11 2c aa bc ee 9d 86 3c fb 0f 81 3b 55 5f 12 bc
       -0.020772966 0.016432729 0.0039386726 -0.008933862
0000b0 03 4b 63 3c 9a 00 0b bc f3 73 d4 3b b9 44 8e bc
       0.013872865 -0.00848403 0.006483549 -0.017366754
0000c0 15 c7 c9 3c 7f cf 61 bc 36 73 f4 3b bb 80 68 3c
       0.024631063 -0.013782381 0.0074600233 0.014190848
0000d0 ba d5 2b bb f7 9b 75 bb ca 9d ec bb 29 55 5c bb
       -0.002621992 -0.0037476995 -0.0072209584 -0.0033620095
0000e0 1f ab 6d bc 48 ef 48 3c d8 41 2e 3c 7c b7 02 3c
       -0.0145061305 0.01226408 0.010635816 0.007978316
0000f0 c2 cd 06 bb 2e a3 da 3b 83 33 3d 3c e8 bd b6 bb
       -0.0020569419 0.0066722846 0.011547926 -0.005576838
000100 ff 4a c5 bb f4 d4 6e 3c 00 00 00 00 51 be 9b bc
       -0.006020903 0.014577139 0.0 -0.019011648
000110 b8 29 9b 3b 2b 61 14 3c 61 4d 9f 3c c5 58 a3 bb
       0.004735198 0.00905637 0.019446077 -0.0049849474
000120 9d 30 15 3c 27 a1 2c 3c 20 a1 84 ba b2 37 88 bb
       0.009105829 0.010536469 -0.001011882 -0.00415703
000130 25 a2 68 b9 b2 2a cc 3c 19 28 a7 bc 33 98 8a bc
       -0.00022185648 0.024922702 -0.020404862 -0.016918277
000140 b1 38 3c 3c c7 2a b2 3c 4f 9f 54 3c 6d d0 9f bb
       0.011488126 0.021748913 0.012977435 -0.004877141
000150 2c 02 08 3c 45 7a c2 bb bd 95 aa 3a ec 8b cd 3a
       0.008301299 -0.005934986 0.0013014596 0.0015681959
000160 89 cc fd ba 37 ff 96 bb 97 c5 08 3c 9e 90 ac 3c
       -0.0019363324 -0.0046080607 0.00834789 0.021065053
000170 a5 6b b9 3b e8 89 4d 3b 6b 82 ef bb 71 e8 df bb
       0.005658584 0.0031362716 -0.007309248 -0.006833129
000180 4f 99 f2 bb 78 af 85 3c 1b 58 63 3c 91 a7 1a 3c
       -0.0074035297 0.016319022 0.013875986 0.009439365
000190 fb 7f be bb 5c 86 aa bb de fc 9e bb 6a f6 33 3c
       -0.0058135963 -0.005204005 -0.0048519215 0.010984043
0001a0 fd f1 58 bc 3d ea 77 bc 50 a3 9a bc b0 9e 19 bc
       -0.013241288 -0.01513153 -0.018876702 -0.009376213
0001b0 38 82 72 b9 f3 10 67 bc 2d d6 49 bc a1 97 46 bb
       -0.00023127429 -0.014103162 -0.01231913 -0.003030278
0001c0 a3 ff 2c 3c 72 88 61 bb 75 c6 12 3b 39 a6 9d 3c
       0.010558995 -0.0034413603 0.0022396122 0.0192443
0001d0 a2 08 26 bb 59 31 48 bb 9a 7b b9 bb bb 18 ca bc
       -0.0025334735 -0.0030546992 -0.0056604864 -0.024669996
0001e0 2e f2 08 3c 8c 27 ba bb 7a 8f 20 3c 62 5c 73 3c
       0.008358521 -0.005680984 0.0097998325 0.014853569
0001f0 e6 51 36 3c e8 5a c8 bc 31 cc 07 bc 4e 40 ff 3c
       0.011127925 -0.02445741 -0.008288429 0.031158593

critic_representation.pursuer_0.model.2.weight f4 [128]
000000 74 e3 7d 3f 69 db 80 3f 4a 8d 7c 3f 3a bd 8c 3f
       0.9917519 1.0066959 0.9865309 1.0995247
000010 f2 83 7f 3f 4b 3c 81 3f 78 52 80 3f 4a 26 7f 3f
       0.9981071 1.0096525 1.0025167 0.996678
000020 30 0a 80 3f 31 7a 82 3f 9e 62 80 3f ab f5 78 3f
       1.0003109 1.019354 1.0030096 0.9724986
000030 7e d8 7d 3f 2c 5f 79 3f 91 33 82 3f bd 11 84 3f
       0.99158466 0.97410846 1.0171987 1.0317913
000040 d2 fa 7d 3f da 14 80 3f 7f 07 7e 3f d4 c1 77 3f
       0.99210846 1.0006363 0.9923019 0.96780133
000050 48 0f 80 3f 56 52 7f 3f 31 36 80 3f 35 8f 88 3f
       1.0004663 0.9973501 1.0016538 1.0668703
000060 b2 48 81 3f 96 6e 7d 3f d3 66 7f 3f d0 b8 85 3f
       1.010031 0.98996866 0.9976627 1.0447025
000070 27 5e 75 3f 78 e2 81 3f 31 46 80 3f 30 60 80 3f
       0.9584679 1.0147238 1.0021421 1.0029354
000080 d7 bc 7c 3f 26 17 7d 3f a8 6c 7e 3f 62 2b 80 3f
       0.98725647 0.98863447 0.99384546 1.0013239
000090 e2 09 82 3f 46 8a 8d 3f b3 a6 7d 3f e9 f2 80 3f
       1.0159266 1.1057823 0.9908249 1.007413
0000a0 65 c3 83 3f 42 08 80 3f f2 83 88 3f 02 8d 7e 3f
       1.0294005 1.000252 1.0665267 0.9943391
0000b0 df 63 85 3f 5a 55 80 3f 56 f6 7b 3f ac ea 83 3f
       1.0421103 1.0026047 0.98422754 1.0305991
0000c0 50 24 80 3f 42 90 80 3f 8a 09 7e 3f 77 c9 80 3f
       1.0011082 1.0044024 0.99233305 1.0061482
0000d0 11 fe 7c 3f 0d 6a 88 3f 48 86 83 3f 90 23 7c 3f
       0.98825175 1.0657364 1.0275354 0.98491764
0000e0 e1 00 80 3f 02 25 82 3f 41 5c 7e 3f 22 4f 7e 3f
       1.0000268 1.0167544 0.9935952 0.993395
0000f0 82 2b 80 3f 20 9a 82 3f 7d d5 80 3f 35 24 7e 3f
       1.0013278 1.0203285 1.0065151 0.99274
000100 3e 9e 88 3f 2a 6f 7f 3f c1 30 80 3f df 31 71 3f
       1.0673292 0.99779 1.0014879 0.9421672
000110 1c 31 7e 3f b7 81 7d 3f 8c 67 81 3f bd 64 7e 3f
       0.99293685 0.99026054 1.0109725 0.99372464
000120 57 eb 81 3f 23 a4 7d 3f 04 3b 74 3f 26 bb 81 3f
       1.0149945 0.9907858 0.9540255 1.0135238
000130 10 f2 7b 3f 5d 3a 83 3f 0d cb 80 3f a4 27 6e 3f
       0.98416233 1.0252186 1.0061966 0.93029237
000140 65 3c 7b 3f 2e 99 85 3f 97 d1 7b 3f 41 48 80 3f
       0.9813903 1.0437372 0.98366684 1.002205
000150 f6 4a 80 3f e4 57 80 3f eb 6a 73 3f b3 cc 7d 3f
       1.0022876 1.0026822 0.9508502 0.9914047
000160 89 13 80 3f 51 62 7d 3f 20 ea 80 3f 8e d9 80 3f
       1.0005962 0.98978144 1.0071449 1.0066392
000170 d2 9f 7d 3f e4 16 7d 3f 9b 4f 80 3f ba 56 7f 3f
       0.9907199 0.98863053 1.0024294 0.9974171
000180 34 1a 7b 3f 75 1b 80 3f ec 07 7e 3f 38 cb 80 3f
       0.9808686 1.0008379 0.9923084 1.0062017
000190 d7 a0 7d 3f 24 ad 7b 3f 24 a1 80 3f ad 7d 8a 3f
       0.9907355 0.98311067 1.0049176 1.0819603
0001a0 bd 9b 78 3f ac 9f 86 3f 9b 50 83 3f 92 1e 7e 3f
       0.9711264 1.0517478 1.0258974 0.99265397
0001b0 c1 f6 84 3f 82 ca 7e 3f c6 f8 7b 3f 57 74 81 3f
       1.0387803 0.9952775 0.98426473 1.0113629
0001c0 bb c7 75 3f fb fd 7f 3f 8d 9a 85 3f a5 5f 80 3f
       0.9600789 0.9999692 1.043779 1.0029188
0001d0 a7 a6 7a 3f 54 ae 7f 3f 63 78 80 3f be 96 7e 3f
       0.9791054 0.9987538 1.0036739 0.99448764
0001e0 f0 a9 81 3f 49 fe 7b 3f fa 65 6e 3f 56 5b 81 3f
       1.0129986 0.98434883 0.93124354 1.0105999
0001f0 4c 10 7c 3f e8 d9 82 3f 30 1d 79 3f 6a 7a 83 3f
       0.9846237 1.022275 0.9731016 1.0271733

critic_representation.pursuer_0.model.2.bias f4 [128]
000000 a2 67 42 bc dc 77 3e 3b 74 80 5e 3c cd 10 3b bb
       -0.011865528 0.002906314 0.01358043 -0.002854395
000010 e9 44 3c bb 39 ec 1a 3c e9 87 2c 3c dc 59 fd bb
       -0.0028727597 0.009455734 0.01053045 -0.0077316593
000020 16 92 af bb 12 70 06 3c 96 83 ed bb d0 fc d9 3c
       -0.005357991 0.008205431 -0.0072483523 0.026609808
000030 5c eb 7d 3b 43 fb de 3b a7 86 a0 3a 07 a0 96 bc
       0.0038745021 0.006804855 0.0012247161 -0.018386854
000040 41 a3 11 3b bc c1 92 bb be 48 a6 3b 35 47 c3 3b
       0.002222255 -0.0044786613 0.0050745895 0.0059594163
000050 7f 86 87 bb 5a f6 dd ba a8 36 07 3a f1 91 d4 bb
       -0.004135906 -0.001693438 0.0005157986 -0.006487124
000060 a0 dd 06 3c e4 4b 5c 3c 46 19 cd 3b 55 6a 6d 3a
       0.00823155 0.013445828 0.0062591163 0.0009056677
000070 38 08 af bb 04 a2 ac bb cb 2f c6 bb f6 15 0d bc
       -0.005341556 -0.005268337 -0.006048178 -0.008611193
000080 4b 57 40 3c 26 67 90 3c 60 a0 ec bb e9 23 01 bb
       0.011739562 0.01762731 -0.0072212666 -0.0019705242
000090 31 37 bd bc 7f c5 73 ba e0 67 0a 3b c0 8d 78 bc
       -0.023097606 -0.00092991436 0.0021119043 -0.015170515
0000a0 61 97 ac bb e2 03 fc 3b 46 43 0a bc ed 85 63 bb
       -0.005267069 0.0076908926 -0.008438891 -0.0034717277
0000b0 6a 11 a4 3b f5 99 db bb 57 56 83 3c 4e b6 2c bc
       0.0050069587 -0.0067017027 0.016032381 -0.010541512
0000c0 3c 59 8a 3b ad d4 a3 bc ef 03 32 3c 20 bb 2d 3c
       0.0042220633 -0.019998873 0.010865196 0.010603696
0000d0 98 36 70 bc 1f 21 2f bc b3 16 f2 bb ba 61 6c 3c
       -0.014661454 -0.010689049 -0.00738796 0.014427597
0000e0 6b b9 4c bc c2 7a ab ba 42 90 8f 3b 73 ab 0d 3c
       -0.012495379 -0.0013082849 0.0043812105 0.008646834
0000f0 df ab b5 bb db d1 07 3c e3 54 0b 3c a2 d9 79 3b
       -0.0055441703 0.00828978 0.008504125 0.0038124104
000100 f7 c0 a3 bb e2 cc 3c 3c 1a 89 b9 bb 4a c7 16 bc
       -0.0049973684 0.011523457 -0.0056620957 -0.009202788
000110 e4 0b 1d 3c d3 ef 5a 3c fd 32 20 3c 15 65 11 3c
       0.0095853545 0.013362843 0.009777782 0.0088741975
000120 14 97 ed bb 39 b9 7c 3c 0c 7f bc bb 52 07 33 bb
       -0.007250676 0.01542502 -0.00575245 -0.0027317596
000130 68 32 82 3c 82 85 8d 3b ae 9e 9e bb 98 7f 79 bc
       0.015893176 0.004318894 -0.0048406934 -0.015228175
000140 cf dd 48 3c 53 d8 65 3b 46 b7 9b 3b 07 22 cf bb
       0.012259915 0.0035071566 0.0047520725 -0.006321195
000150 4f d9 57 3c 73 9d cf bb 4c 37 56 3c 7a 48 57 3c
       0.013174369 -0.006335908 0.013074707 0.013139838
000160 b2 cf 85 bb a7 29 b7 3b 5b b4 e5 3b 11 57 5a 3c
       -0.004083597 0.005589682 0.0070100254 0.013326422
000170 81 f7 d1 3b 2c 89 38 3c b4 82 4f bb 71 6e 05 bc
       0.0064076786 0.011263173 -0.0031663598 -0.008144007
000180 89 b7 c4 3c 93 cc 0e 3b aa 2e 04 3c 61 fa 01 3c
       0.024013298 0.0021789416 0.008067766 0.00793323
000190 81 4e 5c 3b de 41 27 3c ed ed 05 bc 7a c4 91 bc
       0.0033616128 0.010208575 -0.008174402 -0.017793883
0001a0 c5 f5 50 bc 58 c0 fb bb 30 30 61 3b 2d 18 79 3b
       -0.0127539085 -0.0076828413 0.0034360997 0.0038008795
0001b0 58 45 96 bb 2b a0 2b bc dd 84 80 bc 8f ae 7d bc
       -0.004585903 -0.010475199 -0.015688354 -0.015483513
0001c0 4e 74 7f 3c 07 98 9f bb a6 5e 47 bb 1c cb ed 3b
       0.015591694 -0.004870418 -0.0030421405 0.0072568785
0001d0 82 ce 20 3c 2d cb 5a bb a6 b6 0b bc 0c 07 14 bc
       0.00981486 -0.0033385262 -0.0085274335 -0.009034883
0001e0 1d e6 cc 3a 80 4c 9a 3c 16 aa 8b 3c 1d e4 9a 3a
       0.0015632544 0.018835306 0.017048877 0.0011817251
0001f0 73 2e 05 3c 3e 98 33 3b b0 e1 04 3b 1f 13 a7 3a
       0.00812875 0.0027403976 0.0020276122 0.0012746787

actor.pursuer_0.logstd f4 [2]
000000 89 25 04 3f de 06 09 3f
       0.51619774 0.53526103

actor.pursuer_0.mu.0.weight f4 [128, 133]
000000 c0 c5 af bc c6 85 86 3a 19 9f 69 bd 89 a9 a0 3d
       -0.0214566 0.0010263256 -0.057036493 0.07844836
000010 a2 3f 31 3e 2f 12 98 bd 83 a3 5a bd 34 d0 3e bd
       0.1730943 -0.07425343 -0.053378593 -0.046585277
000020 95 63 5c 3d 70 82 76 bd 06 b6 01 3e 06 0a 4b 3d
       0.053805906 -0.06018299 0.12667093 0.049570106
000030 b2 91 8f 3d 92 b7 9e 3d 7f 1e 65 bd 32 76 01 bd
       0.07010211 0.07749857 -0.055937286 -0.03160686
000040 59 16 b1 3d 37 5e 15 bb d2 80 19 be 7f 18 1f 3c
       0.086468406 -0.0022791752 -0.14990547 0.00971043
000050 90 d6 1b 3e d7 3a 95 bd 26 06 39 bb 46 ea 14 be
       0.15218568 -0.072866134 -0.0028232425 -0.14542493
000060 fb e1 be bd 79 c7 12 bd 53 a4 64 3d 36 2a 8a 3d
       -0.09320446 -0.035834763 0.055820774 0.06746332
000070 cf 8e dc 3d 2a 0c 82 bc d9 82 b0 3d 0c e9 f1 3d
       0.10769426 -0.01587494 0.08618707 0.11812028
000080 37 e8 1d be a8 fc c9 bc 45 8a 3d bd 1f 06 20 be
       -0.15420614 -0.024656609 -0.046274442 -0.15627335
000090 22 f4 11 3e 14 5d 1d be e1 9b d7 bd b7 ec 15 3c
       0.14253286 -0.15367538 -0.105277784 0.0091506755
0000a0 61 bc 15 bd 29 ec eb bd 02 cc 54 bb 99 51 82 bd
       -0.036556605 -0.11519653 -0.003247023 -0.0636322
0000b0 a8 ce 5a 3d 6a c5 d5 3d 4d fb 5f 3d 20 23 1e 3a
       0.05341974 0.10438044 0.05468302 0.0006032456
0000c0 c9 e7 1f be 93 ea bf 3d 4b a4 53 3e 65 d9 d7 3a
       -0.15615763 0.09370913 0.20668142 0.0016467987
0000d0 24 0b 15 3d f2 2e aa bd f6 b6 ad bd 85 2b 05 3e
       0.036387578 -0.08309735 -0.08482163 0.13004883
0000e0 9f c3 b8 bd ee 58 8c bc 1c 8b 83 3c 56 8b 3f 3d
       -0.09021687 -0.017132249 0.016057543 0.04676374
0000f0 89 fa 73 bc 7b 59 b7 3d 13 0b f7 bd 5a e7 9a bd
       -0.014891275 0.08952614 -0.12062659 -0.07563658
000100 1e 1b 07 be 2b f3 aa 3c 34 57 80 3e 07 ad 2c 3d
       -0.13193938 0.020867905 0.2506653 0.0421572
000110 5f 1a d9 3c 08 8e 51 3e c5 bd 76 3d b3 ca 48 bc
       0.026501833 0.20464337 0.060239572 -0.0122553585
000120 55 77 b6 3d 8f 39 20 3b 5c 6b 22 3d 5b 38 36 bc
       0.089094795 0.002444837 0.039653167 -0.011121835
000130 8f 92 6f 3c 86 35 ed 3b f5 0b 7b bc 5a b0 7d bd
       0.014622345 0.0072390465 -0.015322675 -0.06193576
000140 36 44 c2 3c 55 c0 4e 3c b5 22 ce bc bf 25 83 3d
       0.023714166 0.012619098 -0.025163034 0.06403684
000150 89 af d4 bc 1f 98 7c 3c ba 41 75 3c 77 f7 85 bd
       -0.025962608 0.015417128 0.014969284 -0.06541341
000160 f3 ca 48 bd f4 21 1b bd 76 d5 84 bc a2 14 ca bb
       -0.049021672 -0.037874177 -0.016215067 -0.0061670104
000170 04 ab 52 3d 72 64 4a 3d 69 fe e7 3c 01 21 f0 3d
       0.051432624 0.0494122 0.028319554 0.11725045
000180 a2 46 72 3d 46 06 63 3e a6 a7 9f 3d c7 d5 75 3d
       0.059149392 0.22170362 0.07795648 0.060018327
000190 f4 cb 60 bd e9 10 3f 3c bd 8a 13 3d c0 2f af 3c
       -0.054882005 0.011661747 0.036020983 0.021385074
0001a0 c7 8d d4 3d 30 5f e4 3a f3 09 b5 3d ed 8f 1a bd
       0.103786044 0.0017423388 0.08839788 -0.037734915
0001b0 96 9f 5c bd 34 84 0a 3e 0b 73 08 3e c5 45 5e bd
       -0.05386313 0.13526994 0.13325135 -0.054265756
0001c0 aa 3f 43 3d f5 e4 86 bd 46 08 b7 3c d9 58 d8 3d
       0.047668137 -0.06586639 0.022342812 0.10563821
0001d0 8f 25 a4 3c 99 46 b3 3d 05 fa 4e bc 56 19 fd 3c
       0.02003744 0.087537 -0.0126328515 0.03089587
0001e0 f2 de 92 3d 38 c2 15 be 6e 34 fb 3d 0f 63 ca 3d
       0.0717143 -0.1462487 0.122658595 0.09882175
0001f0 86 e1 b5 bd 2e e6 01 3e 60 ac 11 3e 85 76 4e 3d
       -0.08880906 0.12685463 0.14225912 0.050405998
000200 81 55 78 ba a9 3d ae bd 43 a2 49 3e 05 cb cb 3d
       -0.00094731903 -0.085078545 0.19690804 0.09950832
000210 cf 50 8d bd f0 8d 1f 3e 46 aa 0b be 65 d5 12 bd
       -0.06900179 0.15581489 -0.13639173 -0.03584804
000220 a4 6b 29 3e da db 2a 3e 6f 42 f2 bc d0 0b e4 3d
       0.16544968 0.16685429 -0.029572694 0.111350656
000230 f7 49 53 bd 19 c9 8b 3d 0b 76 c2 3d 3f 3c b3 3c
       -0.05158421 0.06825466 0.09495171 0.021879314
000240 8c cf 8d 3d c6 4a ff bd 16 bb 47 3c 94 e6 32 3d
       0.06924352 -0.12465434 0.012190601 0.043676928
000250 d6 ed 00 3e 13 14 44 bc 15 21 4a 3d b9 9a c1 bd
       0.12590727 -0.011967677 0.049347956 -0.09453339
000260 0d ad 36 3e 2c 88 61 3d e5 31 bb 3b ba b3 1b 3e
       0.17839451 0.055061504 0.005712735 0.15205279
000270 5e 8a 1e 3d e7 9e 48 bd 0b 9f 92 3d c0 20 af 3d
       0.038706176 -0.048979666 0.07159241 0.085511684
000280 39 85 05 bd 0c c6 1c be 83 2b ae 3d 93 15 69 3c
       -0.032597754 -0.15309924 0.08504393 0.014226335
000290 ba 42 10 3e dd 57 57 bd 47 ac cd bc 26 a3 15 3d
       0.14087954 -0.052574027 -0.025106562 0.036532544
0002a0 1e 1e 80 bc c2 88 1c 3d bd c3 d1 3d 8f 54 df 3d
       -0.015639361 0.03821636 0.10242412 0.109048
0002b0 72 d1 11 be ed 8b 90 bd 03 5a 8a 3c 97 b2 64 3d
       -0.14240053 -0.07057939 0.016888624 0.05583438
0002c0 65 6c 0d 3e 8a 5b b9 3c c3 77 92 bc e9 5f 78 bd
       0.1381088 0.022626657 -0.017879372 -0.060638342
0002d0 ef 58 99 bd 88 b6 24 3d 24 74 4b bd 1b dc 3e 39
       -0.07487666 0.040213138 -0.049671307 0.00018201808
0002e0 6a 61 1e bd 90 3a bc 3d b1 93 75 bd c3 7a ae bc
       -0.03866712 0.091908574 -0.059955303 -0.021298772
0002f0 2d f0 1a 3e bc 41 87 bd 0e fc 9b bd cd b7 ec 3b
       0.15130682 -0.06604335 -0.07616435 0.007224059
000300 3e 47 b1 bd 5d 4c e0 3d c8 c7 72 be 85 59 81 3d
       -0.086561665 0.10952065 -0.23709023 0.063159026
000310 c1 d3 a5 ba 21 15 5d 3d 51 8e af bd 35 a5 21 3e
       -0.0012651609 0.05397523 -0.085720666 0.15785678
000320 5e 2a da 3d 4c cc 8d 3d 2c 09 3c bc cb 5c f6 bc
       0.10652612 0.06923732 -0.011476796 -0.030073544
000330 b5 b2 54 bd 5a d2 f9 3d 3b 4b 46 3d 6f 98 3d 3c
       -0.05192824 0.121983245 0.04841159 0.0115719875
000340 a2 b2 6d 3d ae c3 9b 3d d6 8d b6 bd 00 55 e5 3d
       0.058031686 0.07605682 -0.08913772 0.11197853
000350 ba c4 a7 bd 49 8f 04 be af d4 7b 3c 80 7d f4 bd
       -0.081918195 -0.12945284 0.015370532 -0.11938
000360 5e 06 b7 bc 73 99 a5 bc 19 b5 9a 3d 2b 82 eb 3d
       -0.022341903 -0.020214772 0.07554073 0.11499437
000370 ea 01 4e bd 0d 2b 3a 3e f0 1c c3 bd 92 c8 de bd
       -0.050294794 0.18180485 -0.09527004 -0.108780995
000380 70 3e 28 3d 4f fe 0b bd ea ca 3f 3d 7f e5 c7 bb
       0.04107517 -0.034178074 0.046824373 -0.006100356
000390 0d 04 b8 bd 10 f0 7e 3d e0 cf 19 bd 94 8f ac bd
       -0.089851476 0.06224066 -0.03755176 -0.08425823
0003a0 f2 44 0a 3e 3c 84 9d 3b d3 03 b6 bd 73 74 12 bd
       0.13502863 0.0048070233 -0.08887448 -0.035755586
0003b0 bb 19 fc 3c 04 5b 25 be e3 50 0d 3d ff 37 0f be
       0.030773988 -0.16148001 0.034500968 -0.13986205
0003c0 c3 2d 85 3e 27 2e 9b 3c 1a 2f 0d 3c 7e 9a cf bd
       0.26011476 0.018942906 0.008617187 -0.10136889
0003d0 ee 25 b3 3d 34 e1 b6 bd 41 a2 9b 3d 85 d5 01 3e
       0.08747469 -0.08929673 0.07599307 0.12679107
0003e0 90 f2 98 3d e8 69 a7 3d ba f7 eb bd f5 a4 2a bd
       0.0746814 0.08174497 -0.115218595 -0.04166122
0003f0 77 16 0e bd da 01 97 3c 44 df f7 bd 15 a2 c5 bd
       -0.034689393 0.0184335 -0.121031314 -0.09650055

actor.pursuer_0.mu.0.bias f4 [128]
000000 9a a9 11 b7 6a 03 79 b8 85 3d a8 3b 2d 79 3e bc
       -8.682162e-06 -5.9369406e-05 0.005134287 -0.01162557
000010 f1 1b b7 3b f2 61 78 bc e3 2b 97 bb 6e 38 01 bc
       0.0055880477 -0.015160071 -0.004613386 -0.007886989
000020 19 06 4b bb 8a 28 9c 3b 4e 6c 21 bb 31 2e 8e bb
       -0.0030978976 0.004765575 -0.0024631205 -0.0043390025
000030 fa cd a3 bb bf 56 77 bc f9 20 7f 3a 83 79 fd 3a
       -0.0049989196 -0.0150963655 0.00097323913 0.0019338581
000040 0c 1f 38 3b 8b e6 26 bc 46 bd 0c bc 46 6a 09 3c
       0.0028094677 -0.010186802 -0.008590048 0.008387154
000050 0a 2e 09 bc 77 ef 33 3b bb eb 85 3b 41 23 71 bc
       -0.008372793 0.0027455965 0.004086939 -0.014717878
000060 f2 aa 0a bb 58 a9 0f 3c 8a a4 67 bc c7 77 10 bc
       -0.002115902 0.008768402 -0.01413835 -0.00881762
000070 51 54 ef 3b 53 44 ac 39 11 95 f1 bb 6b 33 91 bb
       0.0073037525 0.00032857302 -0.0073725064 -0.0044311783
000080 37 5a 91 bb f2 32 6f 3b ed 5f 35 ba c0 d4 30 bc
       -0.0044358033 0.0036498872 -0.0006918896 -0.010792911
000090 a7 53 c4 3b 87 40 7d bc a6 85 93 3b b7 87 91 ba
       0.0059914174 -0.015457279 0.004502016 -0.0011103068
0000a0 93 5e cf 3a 8d d4 e9 3a 66 6d 5c ba c5 54 d9 bb
       0.0015821032 0.0017839834 -0.00084086356 -0.00663242
0000b0 fa ff b4 bc 5c cd cc bb 2b 48 63 3b e9 f5 34 bc
       -0.022094715 -0.0062500667 0.0034680467 -0.011044958
0000c0 d2 e5 08 3c d0 1a 10 bc fe b2 6f 3c 95 ce 1d bc
       0.008355575 -0.008795455 0.014630077 -0.0096317725
0000d0 ec d3 a3 3b 5f 1d 54 3a 30 71 2e ba 00 45 5f bb
       0.0049996283 0.0008091535 -0.00066544395 -0.0034068227
0000e0 46 9e 1e bb c3 cf ef b9 a9 78 b2 3b 49 3b ba bb
       -0.0024203225 -0.00045740427 0.0054465127 -0.005683337
0000f0 a7 ec 86 bb 2e fe 93 3b b6 10 97 bb 87 22 58 ba
       -0.0041175666 0.0045163846 -0.0046101464 -0.0008244891
000100 7d 6c 88 ba 50 aa 00 3c e1 04 e7 ba f7 30 85 3b
       -0.0010408309 0.007853106 -0.0017625355 0.004064675
000110 e2 52 7a bc 81 c6 a8 bc bf e1 e4 3b 21 48 93 bb
       -0.01527855 -0.020602467 0.006984919 -0.0044946824
000120 48 d9 f2 3b b0 72 3b bc 8e 64 7b bc 7e c3 8b bb
       0.007411156 -0.011440918 -0.015343798 -0.004265248
000130 79 77 c3 bb 74 18 52 ba 6b af 36 bb 91 f4 45 bc
       -0.00596517 -0.0008014508 -0.0027875553 -0.012082235
000140 01 3c 8d bb 98 0c 5a bc b7 87 59 b9 50 ac 0a 3b
       -0.0043101315 -0.013308667 -0.0002074529 0.0021159835
000150 81 c4 49 3a ea f4 c7 ba cf b8 2e bb 05 0c 9f 3b
       0.0007696823 -0.0015255485 -0.0026660447 0.0048537278
000160 23 dc f7 ba 5a fe c6 3b 16 8a 26 bc 23 d8 09 3c
       -0.001891021 0.0060728015 -0.010164758 0.008413347
000170 6a f0 24 39 ea b3 2c bb 70 d4 b7 3a 7c 58 39 3a
       0.0001572982 -0.0026352354 0.0014025103 0.0007070375
000180 e5 8d 1b bc ff c8 0c 3a 62 73 9a 3a 2c d5 64 ba
       -0.0094942795 0.0005370527 0.0011783654 -0.0008729275
000190 98 42 fd 39 13 6e 3a bb 47 c5 1f 3b 60 dc 62 bb
       0.00048305537 -0.0028446957 0.002437906 -0.0034616217
0001a0 c0 b3 9d bb 66 34 bf bb 69 22 b7 3b 5b 7b 93 bc
       -0.0048126876 -0.005835104 0.005588819 -0.018003156
0001b0 97 ac 28 3c af 9d e9 3a c3 a9 37 3c c7 fd a1 3b
       0.010295055 0.0017823483 0.011209908 0.0049435827
0001c0 33 f9 8a bb b9 9f d5 bb 47 c0 0e 3c 04 dc 36 3c
       -0.0042411326 -0.0065192846 0.008712835 0.011160854
0001d0 0b fc 42 bb 16 73 3f 3b 89 47 94 3b 6c 79 43 bb
       -0.002975228 0.0029212884 0.004525129 -0.0029827012
0001e0 d4 d0 80 3a 4f 9b 41 3c 5e 94 8b 36 aa 83 7d bc
       0.0009827861 0.011816814 4.159795e-06 -0.015473286
0001f0 84 76 96 ba 41 71 78 bb 21 13 24 3b 15 18 5b bc
       -0.0011479412 -0.0037909301 0.0025035816 -0.013372441

actor.pursuer_0.mu.2.weight f4 [128]
000000 63 c0 7f 3f 13 06 80 3f a8 3e 80 3f 57 62 7f 3f
       0.99902934 1.0001854 1.0019121 0.9975943
000010 ff 4e 80 3f 47 29 7f 3f 3d 90 80 3f 11 f6 7b 3f
       1.0024108 0.9967236 1.0044018 0.9842234
000020 0b 26 7d 3f 02 47 80 3f e9 5d 7d 3f dc 06 83 3f
       0.98886174 1.002167 0.9897142 1.0236468
000030 ba 6e 7f 3f 4d 06 7e 3f ee 4d 80 3f 57 3f 7b 3f
       0.9977833 0.99228364 1.0023782 0.98143524
000040 ec 0b 7f 3f df 49 7f 3f 18 52 7f 3f 8e 44 80 3f
       0.99627566 0.99722093 0.9973464 1.0020921
000050 96 37 7f 3f 1c 28 80 3f 69 f3 7f 3f 33 85 7f 3f
       0.9969419 1.001224 0.9998079 0.9981262
000060 99 23 7d 3f 62 f7 7f 3f 97 a1 7f 3f 11 23 7f 3f
       0.9888244 0.9998685 0.9985594 0.9966288
000070 5d 4c 7d 3f 37 89 7e 3f ea 1e 80 3f d4 ba 80 3f
       0.98944646 0.99428123 1.0009434 1.0057015
000080 38 7b 7e 3f 2a dd 81 3f 03 78 80 3f 13 dd 7e 3f
       0.99406767 1.0145619 1.0036625 0.9955608
000090 c1 5c 81 3f 15 f9 7e 3f de a2 7f 3f a7 95 7f 3f
       1.0106431 0.9959882 0.9985789 0.99837726
0000a0 54 16 7d 3f 68 54 82 3f f5 07 7d 3f 53 cd 7b 3f
       0.98862195 1.0182009 0.98840266 0.98360175
0000b0 06 81 7f 3f 9b 76 7e 3f e4 b9 7f 3f 15 4b 7f 3f
       0.9980625 0.9939973 0.9989302 0.9972394
0000c0 da 3f 80 3f 50 46 7f 3f 06 f0 82 3f 01 bd 7d 3f
       1.0019486 0.99716663 1.0229499 0.9911652
0000d0 48 cf 82 3f aa 4f 80 3f c9 36 81 3f b2 37 81 3f
       1.0219507 1.0024312 1.0094844 1.0095122
0000e0 92 85 7b 3f 63 60 7f 3f 87 a7 7f 3f 99 c9 7f 3f
       0.9825069 0.9975645 0.99865 0.9991699
0000f0 ec 47 7f 3f 66 ec 83 3f 52 69 80 3f a6 b5 7e 3f
       0.9971912 1.0306518 1.0032141 0.99495924
000100 17 52 7e 3f 7a eb 7f 3f db 2c 80 3f 68 ad 80 3f
       0.9934401 0.99968684 1.0013689 1.0052919
000110 2b eb 7e 3f f8 96 7e 3f a4 4b 80 3f 13 28 82 3f
       0.9957759 0.9944911 1.0023084 1.016848
000120 f8 86 7d 3f 30 d3 7f 3f a3 45 80 3f 40 c0 7f 3f
       0.9903407 0.9993162 1.0021251 0.99902725
000130 1e f4 7d 3f ce ec 7b 3f 0a fc 79 3f 82 f9 7c 3f
       0.9920062 0.9840821 0.97650206 0.9881822
000140 8f 13 81 3f ce 6c 7f 3f 6c ca 7f 3f 4d 63 7d 3f
       1.0084094 0.997754 0.99918246 0.98979646
000150 6b 57 7f 3f d0 f1 7f 3f 47 e5 7d 3f a4 75 7f 3f
       0.99742764 0.9997835 0.99177974 0.9978888
000160 e1 c0 7b 3f a8 83 84 3f e4 9c 7d 3f 8a 93 7c 3f
       0.98341185 1.0352678 0.9906752 0.98662627
000170 fa 23 80 3f 3e 32 7e 3f bb fd 7e 3f 22 b9 81 3f
       1.0010979 0.99295413 0.9960591 1.0134623
000180 94 02 80 3f c9 a6 7e 3f fb a0 7f 3f 0d 73 82 3f
       1.0000787 0.99473244 0.9985501 1.0191361
000190 f0 90 80 3f 83 13 81 3f cd 55 7f 3f f6 a0 79 3f
       1.0044231 1.008408 0.99740297 0.9751123
0001a0 be 30 83 3f 6c f6 7f 3f 90 49 81 3f 63 00 7f 3f
       1.024925 0.99985385 1.0100574 0.99609965
0001b0 48 38 81 3f 8d 76 7f 3f 91 a3 81 3f b0 67 80 3f
       1.0095301 0.9979027 1.0128042 1.0031643
0001c0 da 74 7f 3f ed cc 7f 3f af db 7e 3f b3 3f 7e 3f
       0.99787676 0.99922067 0.9955396 0.9931595
0001d0 56 43 81 3f 56 4b 80 3f 35 8c 80 3f ce cd 7d 3f
       1.0098674 1.0022991 1.0042788 0.9914216
0001e0 bd b1 7e 3f b2 48 80 3f 51 e7 7f 3f 5d d0 7f 3f
       0.9948996 1.0022185 0.99962336 0.9992731
0001f0 24 28 81 3f 29 8a 7e 3f 77 9c 82 3f e0 1c 7f 3f
       1.0090375 0.99429566 1.0203999 0.99653435
