examples/marl/models/mappo/torch/MACS/seed_1_2025_1014_114553/best_model.pth (torch, 988149 bytes, 20 tensors)

actor_representation.pursuer_0.model.0.weight f4 [128, 272]
0	0xbce07af0	-0.027402371
1	0xbd6871fb	-0.056749325
2	0x3d590de0	0.052991748
3	0x3c244c5c	0.010027971
4	0x3cbafb89	0.02282502
5	0x3d3d0795	0.04614981
6	0xbd1f1007	-0.038833644
7	0x3e271176	0.16315255
8	0x3c40648d	0.011742723
9	0x3cb6c3fa	0.022310246
10	0x3d25c87c	0.0404744
11	0xbd6697be	-0.056297056
12	0x3cefe1f6	0.029282551
13	0xbd35adcb	-0.044355195
14	0xbda38125	-0.07983617
15	0xbdf61d8f	-0.120173566
16	0x3dab8b21	0.08376146
17	0x3c56e795	0.013116737
18	0xbacb6b53	-0.0015519656
19	0x3dd4353c	0.10361716
20	0xbd56ff9e	-0.05248987
21	0x3d486b9f	0.04893076
22	0xbd933aac	-0.07188925
23	0xbd391512	-0.04518611
24	0xbd2fc344	-0.04291083
25	0x3d97a11f	0.07403778
26	0x3d152412	0.036411352
27	0x3e09ff34	0.13476259
28	0x3bb682fc	0.005569814
29	0xbe071d2d	-0.13194723
30	0xbccc210e	-0.024918105
31	0xbd68a233	-0.05679531
32	0x3d547afc	0.0518751
33	0x3c67e36c	0.014153343
34	0x3e24653e	0.16054246
35	0xbd4a6aea	-0.049418367
36	0xbd9c743d	-0.07639358
37	0x3c8c1d98	0.017103955
38	0xbdba0fcf	-0.090850465
39	0xbd544a35	-0.05182858
40	0xbda661cb	-0.08124121
41	0x3d983eec	0.074338764
42	0xbb58ba40	-0.0033069998
43	0x3d02f4dc	0.031971797
44	0xbc13af6f	-0.009013995
45	0xbb4294ab	-0.0029690664
46	0x3d5be9c1	0.053689722
47	0x3c896c24	0.016775198
48	0x3d7200e2	0.059082873
49	0x3d50bad9	0.05095944
50	0xbd5a5b2b	-0.0533096
51	0x3d40bef2	0.0470571
52	0x3dbf204a	0.093323305
53	0xbde40ab4	-0.11134854
54	0xbc6cde2e	-0.014457269
55	0xbc0a9986	-0.008459454
56	0x3db7d692	0.08976473
57	0xbd440d21	-0.047864083
58	0xbc3ced68	-0.011531211
59	0xbd49156f	-0.049092706
60	0x3b33d763	0.0027441613
61	0x3db4fe94	0.088376194
62	0x3cd18974	0.025578238
63	0x3ccd6827	0.025074078
64	0x3ce1d886	0.027569067
65	0x3c3860f5	0.011253585
66	0x3d142d52	0.036176033
67	0x3dd1a7e7	0.10237103
68	0x3dd7bd13	0.1053411
69	0xbce27c3c	-0.02764713
70	0xbd9cd5f7	-0.07657998
71	0xbce0194f	-0.027355818
72	0x3d16872f	0.036750015
73	0x3d1ed062	0.038772948
74	0x3df7dc0b	0.12102517
75	0xbcb1c52c	-0.021700464
76	0x3c0b4ec6	0.008502668
77	0x3ce8aca7	0.02840264
78	0xbd11ce64	-0.03559722
79	0xbd2c9937	-0.042138305
80	0xbd9dd05a	-0.077057555
81	0xbd551e81	-0.052031044
82	0xbdd55d84	-0.10418227
83	0xbd25a46c	-0.040440008
84	0xbc4cd142	-0.012501063
85	0x3d4047d4	0.0469435
86	0x3d27a847	0.040931966
87	0xbc495ee1	-0.012290687
88	0x3c681646	0.014165467
89	0x3d078b88	0.03309205
90	0x3d3afc64	0.045650855
91	0xbdf3bfb1	-0.119017966
92	0xbd90ad73	-0.07064333
93	0xbc4a6cd6	-0.01235505
94	0x3d0917b9	0.03346989
95	0xbd86e470	-0.0658654
96	0x3b907f79	0.004409727
97	0xbdb49132	-0.08816756
98	0xbda539c8	-0.080676615
99	0xbcaa23c8	-0.020769015
100	0x3d0989e3	0.033578765
101	0x3d6f7a16	0.05846604
102	0x3d7a7cd7	0.061154213
103	0x3dfd0390	0.12354195
104	0x3d5aaf4f	0.053389844
105	0xbc849b0e	-0.016187217
106	0xbdb5c7fe	-0.08876036
107	0xbdc53957	-0.09630077
108	0xbcb8d5ab	-0.022562822
109	0x3ce91f2f	0.028457252
110	0x3c5d073d	0.013490495
111	0xbd268b69	-0.040660296
112	0x3c410d6f	0.011782988
113	0xbdc27471	-0.09494866
114	0x3d90ce91	0.070706494
115	0x3d4724a1	0.048618916
116	0xbd0040b5	-0.03131171
117	0xbd826730	-0.06367338
118	0x3db66474	0.08905879
119	0xbd257743	-0.04039694
120	0xbd9c6e77	-0.07638257
121	0x3aafe14c	0.0013418584
122	0xbdbcb184	-0.09213546
123	0xbda40655	-0.0800902
124	0xbd8aea01	-0.06782914
125	0x3dfd587c	0.12370393
126	0x3d976f53	0.0739428
127	0x3da28c49	0.079369135
128	0x3d651d1a	0.055935957
129	0x3e095397	0.13410793
130	0x3ce43dbe	0.027861472
131	0x3a9eb465	0.0012108205
132	0x3d8b3c0c	0.067985624
133	0x3c77f86c	0.015134912
134	0x3c108ab7	0.008822135
135	0xbd80c077	-0.0628671
136	0x3e215bd5	0.15757687
137	0x3cf2cdc2	0.029639129
138	0xbd9dc4e2	-0.07703568
139	0xbd37c09d	-0.044861425
140	0xbda994df	-0.08280348
141	0xbd220f68	-0.039565474
142	0xbdeca8ba	-0.115556195
143	0xbca1a963	-0.01973409
144	0xbc568681	-0.013093592
145	0x3cbba88e	0.022907522
146	0xbdb5ceec	-0.08877358
147	0x3c6d1302	0.014469864
148	0x3b92b1bc	0.004476754
149	0x3d8631b5	0.065524496
150	0x3d446f5e	0.04795777
151	0x3d81531a	0.063146785
152	0xbdc864b2	-0.09784831
153	0xbd34fc3d	-0.044185866
154	0x3d987f08	0.07446104
155	0x3cbd2634	0.023089506
156	0xbd867697	-0.06565588
157	0xbdba6141	-0.09100581
158	0xbc130029	-0.008972206
159	0xbb29893b	-0.002586915
160	0x3cbec99e	0.023289498
161	0x3c789c95	0.015174051
162	0x3da282f7	0.07935136
163	0x3dc3b982	0.09556867
164	0x3c0db787	0.008649713
165	0xbddfcb27	-0.1092742
166	0xbd45c559	-0.04828391
167	0xbccdedf9	-0.025137888
168	0x3d672422	0.056430943
169	0xbcb34759	-0.021884607
170	0x3d5091ce	0.0509203
171	0xbd07bd29	-0.03313938
172	0xbcb206ec	-0.021731816
173	0x3d6a74e1	0.05724037
174	0x3c60a8cf	0.013712122
175	0xbd9405ed	-0.07227693
176	0x3caa7b81	0.020810844
177	0xbd2c9a0f	-0.04213911
178	0x3dfac356	0.122442886
179	0xbdcf16a0	-0.10111737
180	0xbb00c01e	-0.001964576
181	0x3d602abb	0.05472825
182	0x3d3e8491	0.046513144
183	0x3d6aa21c	0.057283506
184	0xbe17eb40	-0.14835835
185	0x3e16229d	0.14661641
186	0x3c8b6422	0.01701552
187	0xbd06b9a7	-0.032891896
188	0x3d7df33f	0.061999556
189	0x3d4d7345	0.050158758
190	0x3da1858c	0.078868
191	0xbd068417	-0.032840814
192	0x3d2cc8c3	0.04218365
193	0x3cb99281	0.022652866
194	0x3c26c94a	0.010179827
195	0x3d3ce9d2	0.046121426
196	0xbd8ef43c	-0.06980178
197	0x3d2fcc85	0.042919654
198	0x3dc8a705	0.097974814
199	0xbcaf0ecf	-0.021369366
200	0x3d12ee09	0.03587154
201	0x3d79eee7	0.06101885
202	0x3d35b69e	0.04436361
203	0x3d15afcf	0.036544617
204	0xbb0d3cb7	-0.0021551081
205	0xbd5bdca8	-0.05367723
206	0xbd99d68c	-0.07511625
207	0x3d5edd64	0.054410353
208	0x3d7496b6	0.05971404
209	0xbc0ffe96	-0.008788725
210	0x3d8d2047	0.06890922
211	0x3c8f4c58	0.017492458
212	0xbc75d7c5	-0.015005057
213	0xbd9daa8c	-0.07698545
214	0x3d0a31e2	0.03373898
215	0xbdb9363d	-0.09043548
216	0xbd64958b	-0.055806678
217	0xbcc6172c	-0.024180971
218	0x3d351206	0.04420664
219	0x3cb45610	0.022013694
220	0xbdb2df8b	-0.08734044
221	0xbcacadbb	-0.021078935
222	0x3d3ec94e	0.046578698
223	0xbd0ac133	-0.033875655
224	0xbbed84e5	-0.0072485083
225	0xbdf24780	-0.11830044
226	0x3d735306	0.05940535
227	0xbd5cac0a	-0.053875007
228	0xbde80e9b	-0.11330911
229	0xbcd3b80f	-0.025844602
230	0xbb7c270a	-0.0038475418
231	0x3c893b04	0.016751774
232	0x3b45b3c6	0.0030166968
233	0xbc7ece22	-0.015552076
234	0x3caf9815	0.021434823
235	0xbd8a2117	-0.06744593
236	0xbc6965af	-0.014245435
237	0x3c957989	0.018246429
238	0xbc063b3e	-0.008192835
239	0x3ca195ba	0.019724716
240	0xbc3cf960	-0.011534065
241	0xbc6dd7f8	-0.014516823
242	0xbcc25310	-0.023721248
243	0xbd4b27c1	-0.04959846
244	0xbcc5eae4	-0.024159856
245	0xbced5e09	-0.028975504
246	0x3b3d723d	0.0028907203
247	0x3c8d1ee6	0.017226648
248	0xbcfc3ace	-0.030789759
249	0xbdd58e36	-0.10427515
250	0x3dc1d919	0.09465236
251	0xbd764523	-0.060124528
252	0xbddb2490	-0.10700333
253	0x3d0c2f9a	0.034225084
254	0x3d6f6334	0.058444217
255	0x3a687212	0.00088670955

actor_representation.pursuer_0.model.0.bias f4 [128]
0	0x3aae9285	0.0013318813
1	0xbb32feb5	-0.0027312462
2	0xbb773989	-0.0037723503
3	0xbba58f33	-0.005052471
4	0xbaecfd94	-0.0018080943
5	0xbb86877c	-0.0041055065
6	0xbaa4b602	-0.001256645
7	0xbacbc9a7	-0.0015547768
8	0x3c1f40ae	0.009720011
9	0xbb871e0a	-0.004123454
10	0xbc0feec8	-0.008784957
11	0xbbc69877	-0.0060606557
12	0xbb98867b	-0.004654703
13	0xbbaa96be	-0.005205958
14	0x3c6029a4	0.013681803
15	0x3b9882d3	0.0046542673
16	0xbbcfb3a3	-0.006338553
17	0xbbbd2104	-0.005771758
18	0x3a2195d5	0.00061639893
19	0xbb483c76	-0.0030553616
20	0xbb7fe92c	-0.0039048893
21	0xbc03a826	-0.008035695
22	0xbb96fca9	-0.004607756
23	0x3aedd3fa	0.0018144839
24	0x3bb2bf5e	0.0054549417
25	0xbabd03fe	-0.0014420745
26	0xbbb131b6	-0.0054075373
27	0xbb8a384c	-0.004218137
28	0xba644edf	-0.00087092625
29	0x3afac30f	0.0019131618
30	0xbb6b8771	-0.0035938884
31	0xbb57e058	-0.0032940116
32	0x39ce1bf2	0.00039312203
33	0xbb054b8c	-0.002033922
34	0xbbda868a	-0.0066688703
35	0xbbcc2f09	-0.006231193
36	0xbb78d898	-0.0037970897
37	0xbb8742b2	-0.0041278237
38	0xbb7599f4	-0.0037475796
39	0x3a9f0819	0.0012133151
40	0x37c75cd3	2.3765873e-05
41	0xbb85db76	-0.0040849997
42	0xbba5669b	-0.005047632
43	0xbb755045	-0.0037431878
44	0xbbd5ccad	-0.0065246434
45	0xbb7f875a	-0.0038990588
46	0xbb7f1ccb	-0.0038927074
47	0xbbd9aec6	-0.006643149
48	0x3b32933a	0.0027248398
49	0xbb308be4	-0.002693885
50	0x3b09df99	0.0021037816
51	0x3ad7b98f	0.0016458499
52	0xbb80a1d8	-0.0039255433
53	0xbb4486d5	-0.0029987593
54	0xbc05f6dc	-0.008176532
55	0x3a4a563c	0.00077185384
56	0xbbc19978	-0.0059081875
57	0x3ae96dcc	0.0017809211
58	0xbb29bd0a	-0.002590003
59	0x3adf37f8	0.001703023
60	0xba712503	-0.00091989356
61	0xbab712ac	-0.0013967357
62	0x3bc7b8cd	0.006095028
63	0xbb94b75c	-0.0045384597
64	0xbc141ef4	-0.009040583
65	0x3ae77b5b	0.0017660664
66	0xbb085857	-0.0020804608
67	0xbbc4910b	-0.005998736
68	0xbbb6a00e	-0.005573279
69	0xb9794ee4	-0.0002377588
70	0xb9fbfe20	-0.0004806379
71	0xbb97dc86	-0.0046344427
72	0x3be19cf3	0.006885165
73	0xb81f1778	-3.793041e-05
74	0xbba5c5c4	-0.005058976
75	0xbb2d4ebd	-0.0026444637
76	0xbb683c66	-0.003543639
77	0xbbbafd2a	-0.005706449
78	0x3a85f495	0.0010219986
79	0xbb8d6a76	-0.0043156696
80	0xbb88fe1e	-0.0041806838
81	0xb88168a4	-6.17069e-05
82	0xbb0607a9	-0.0020451343
83	0xbaa20615	-0.0012361432
84	0xbab773d0	-0.0013996307
85	0xbbaad8ec	-0.0052138474
86	0xbba5af7e	-0.0050563207
87	0x3a519aae	0.00079957664
88	0xbb3a8de3	-0.0028465919
89	0xbbe6112b	-0.0070210896
90	0xbb703578	-0.0036652964
91	0x3b4f1eb3	0.0031603992
92	0xb9d3ccf7	-0.00040397767
93	0xbb63446b	-0.0034678231
94	0xbb9081a3	-0.004409985
95	0x3a846a1b	0.0010102423
96	0xbb4a12a7	-0.0030833872
97	0xbacdcfcc	-0.0015702187
98	0xbbdb13ce	-0.0066857105
99	0xbb966983	-0.0045902147
100	0xbbb47679	-0.005507287
101	0xbbc45c69	-0.0059924615
102	0x3ac34552	0.0014897978
103	0x3b5988a8	0.0033193026
104	0xbc27859b	-0.010224725
105	0xbb3a6711	-0.002844278
106	0xbbb80cb5	-0.005616749
107	0xbb1bd990	-0.00237808
108	0xbb45b11c	-0.003016538
109	0xbbd50492	-0.006500789
110	0xbbad7513	-0.0052934974
111	0xbb655df2	-0.0034998623
112	0xbb7ac830	-0.0038266294
113	0xbbde6e3d	-0.006788044
114	0xbb9d6bba	-0.004804102
115	0xbbd449f3	-0.006478542
116	0xbba9f43c	-0.0051865857
117	0xbb1612a7	-0.0022899301
118	0x3a6b2fbb	0.0008971651
119	0xb9d1d89b	-0.0004002497
120	0xbb8f33a5	-0.00437017
121	0xba38bed2	-0.00070474774
122	0xbae2d370	-0.0017305445
123	0x3a8a3120	0.0010543205
124	0xbbe75a6f	-0.007060341
125	0xba78d690	-0.00094924215
126	0xbb66befd	-0.0035209053
127	0xbb323fbf	-0.002719864

actor_representation.pursuer_0.model.2.weight f4 [128]
0	0x3f80b6cb	1.0055784
1	0x3f81406d	1.0097786
2	0x3f7f9760	0.99840355
3	0x3f8086b5	1.0041109
4	0x3f7e78e8	0.9940324
5	0x3f7ed3c3	0.9954187
6	0x3f7c5b3d	0.9857672
7	0x3f7e355c	0.9930017
8	0x3f800819	1.0002471
9	0x3f7fcf41	0.9992562
10	0x3f7ba5af	0.9829969
11	0x3f7ebd08	0.9950719
12	0x3f7f6971	0.99770266
13	0x3f7e9dfe	0.99459827
14	0x3f83f911	1.0310384
15	0x3f803471	1.0016004
16	0x3f7f77af	0.99792
17	0x3f7f8eb5	0.9982713
18	0x3f804959	1.0022384
19	0x3f7bba64	0.98331285
20	0x3f7db021	0.99096876
21	0x3f800dff	1.0004271
22	0x3f7fd663	0.99936503
23	0x3f82a6dc	1.0207171
24	0x3f7b5f09	0.9819189
25	0x3f81bcdb	1.0135759
26	0x3f801ede	1.000942
27	0x3f7b2d0f	0.9811563
28	0x3f802905	1.0012518
29	0x3f7dae5d	0.9909418
30	0x3f7fe341	0.99956137
31	0x3f7ca3a9	0.98687226
32	0x3f7fb2cc	0.998822
33	0x3f7d6bad	0.98992425
34	0x3f7c220b	0.98489445
35	0x3f809cae	1.0047815
36	0x3f801ab2	1.0008147
37	0x3f7ffa13	0.9999096
38	0x3f7f5dae	0.9975232
39	0x3f7aefaa	0.9802195
40	0x3f7eea9d	0.9957674
41	0x3f8039af	1.0017604
42	0x3f7f9688	0.9983907
43	0x3f7ef56c	0.99593234
44	0x3f8024bf	1.0011214
45	0x3f7dec84	0.9918902
46	0x3f7f1a0f	0.9964914
47	0x3f7fe25c	0.9995477
48	0x3f80eccf	1.0072268
49	0x3f7f464f	0.9971666
50	0x3f861dec	1.0477881
51	0x3f7cf314	0.9880841
52	0x3f7e6465	0.9937194
53	0x3f7df9b3	0.99209136
54	0x3f806d7a	1.003341
55	0x3f837958	1.0271406
56	0x3f833660	1.0250969
57	0x3f7e1708	0.9925389
58	0x3f801978	1.0007772
59	0x3f8089ef	1.0042094
60	0x3f7fb29f	0.9988193
61	0x3f7a04ab	0.9766337
62	0x3f7f3e0f	0.9970407
63	0x3f80768c	1.0036178
64	0x3f7cbd9d	0.98726827
65	0x3f80bef2	1.0058272
66	0x3f82f082	1.0229647
67	0x3f7decfb	0.9918973
68	0x3f7f7905	0.99794036
69	0x3f8160a2	1.0107615
70	0x3f82a24c	1.0205779
71	0x3f7e2987	0.99282116
72	0x3f809b77	1.0047444
73	0x3f8010af	1.0005091
74	0x3f7d6508	0.98982286
75	0x3f7f2ec8	0.9968076
76	0x3f7ca5b1	0.98690325
77	0x3f806941	1.0032121
78	0x3f7fef2a	0.9997431
79	0x3f7f0074	0.99610066
80	0x3f7fbd70	0.99898434
81	0x3f816732	1.0109618
82	0x3f7e48f0	0.99330044
83	0x3f7ee095	0.99561435
84	0x3f7ec0ef	0.99513143
85	0x3f804202	1.0020144
86	0x3f7e8432	0.99420464
87	0x3f846af3	1.0345138
88	0x3f7fd806	0.99939
89	0x3f7fc470	0.99909115
90	0x3f7f2d41	0.99678427
91	0x3f802502	1.0011294
92	0x3f8134f5	1.0094286
93	0x3f8451e8	1.0337496
94	0x3f7f243c	0.99664664
95	0x3f7cab50	0.986989
96	0x3f806243	1.0029987
97	0x3f822bba	1.0169594
98	0x3f8151e1	1.0103112
99	0x3f7f4fa5	0.997309
100	0x3f7d0c03	0.98846453
101	0x3f7df684	0.9920428
102	0x3f7d698b	0.9898917
103	0x3f7c512f	0.98561376
104	0x3f7b5f62	0.9819242
105	0x3f7f92bb	0.9983327
106	0x3f7ecbe5	0.9952987
107	0x3f82dcc1	1.0223619
108	0x3f8011eb	1.0005468
109	0x3f7ef58c	0.99593425
110	0x3f7eff8c	0.99608684
111	0x3f7f5655	0.9974111
112	0x3f812ca4	1.0091748
113	0x3f80455e	1.0021169
114	0x3f7d35ec	0.98910403
115	0x3f7e502c	0.9934108
116	0x3f7e4240	0.9931984
117	0x3f7f6381	0.99761206
118	0x3f850287	1.0391396
119	0x3f808aa9	1.0042316
120	0x3f781f3e	0.9692267
121	0x3f7d4870	0.98938656
122	0x3f820872	1.0158827
123	0x3f821257	1.0161847
124	0x3f7df78f	0.9920587
125	0x3f806b8e	1.0032823
126	0x3f7e08b4	0.9923203
127	0x3f802d44	1.0013814

actor_representation.pursuer_0.model.2.bias f4 [128]
0	0x3b115850	0.0022177882
1	0xbbb5b66e	-0.005545429
2	0xbac97cc5	-0.0015372267
3	0xbb9add2a	-0.004726072
4	0xbb8babe1	-0.004262433
5	0x3ba006aa	0.004883607
6	0xb9fe354b	-0.00048486362
7	0x3be69d11	0.0070377667
8	0x3b66c628	0.0035213325
9	0x3a17fd57	0.00057979434
10	0x3c6c529b	0.014423992
11	0x3b7681ee	0.0037614065
12	0xbb0fe678	-0.0021957438
13	0x3ba0a968	0.0049030073
14	0x3bcfb159	0.00633828
15	0xba7ae5b4	-0.00095709716
16	0x3a91ec98	0.0011133133
17	0x3a0dd38b	0.00054102455
18	0x39ce2725	0.00039320547
19	0x3c83cd58	0.016089126
20	0x3bb9b96a	0.005667855
21	0xb9bc1211	-0.00035871615
22	0xb95b7c35	-0.00020931738
23	0xbb6e8d84	-0.0036400268
24	0xbbb87407	-0.005629066
25	0x3abe1fba	0.0014505305
26	0xbacb22a9	-0.0015498
27	0x3c2ab08b	0.010418068
28	0xbc0aa54d	-0.008462262
29	0x3b5e52cf	0.003392387
30	0xb89d0231	-7.4867516e-05
31	0x3befbc6b	0.0073161623
32	0x3b24b4b6	0.0025132126
33	0x3c293292	0.010326998
34	0x3c80b5dd	0.01571172
35	0xbbc2128c	-0.005922621
36	0xba983434	-0.0011612237
37	0xbaa63948	-0.0012681866
38	0x3aeea8c8	0.001820826
39	0x3b96e21a	0.00460459
40	0x3bdbb9bc	0.006705491
41	0xbb1de3ac	-0.0024092002
42	0x3b1fc536	0.0024379021
43	0x3b85992b	0.004077097
44	0xbb4b784f	-0.0031047051
45	0x3c14750d	0.00906111
46	0x3b157624	0.0022806013
47	0x3a91b566	0.0011116683
48	0xbb4106e1	-0.0029453563
49	0xbb4ec08b	-0.003154787
50	0xbbebef3b	-0.0072001494
51	0x3b9a2560	0.0047041625
52	0x3bd167ea	0.0063905613
53	0x3bfce7f3	0.00771808
54	0xbb8a8a21	-0.004227892
55	0xbaedb2dd	-0.001813497
56	0xbb796b06	-0.0038058176
57	0x3b34616f	0.0027523895
58	0xbaf5577b	-0.0018718088
59	0x3b0c2db4	0.0021389546
60	0xbaf43da9	-0.0018634099
61	0x3bf046a3	0.0073326393
62	0x3b51e199	0.0032025336
63	0xbbfd6be9	-0.007733811
64	0x3c4f110a	0.01263834
65	0x3b8ab2dd	0.004232748
66	0xbb5ee401	-0.0034010413
67	0xba32c70f	-0.0006819823
68	0xba8b5034	-0.0010628761
69	0x3a3b56cd	0.0007146418
70	0xbbcde649	-0.0062835556
71	0x3bdef7c4	0.0068044383
72	0x3b9b8715	0.0047463276
73	0x3b3e1a40	0.0029007345
74	0x3c12767e	0.008939384
75	0xbb062967	-0.0020471455
76	0xbb2cfe95	-0.002639686
77	0xbb38056b	-0.0028079401
78	0xb8ae6099	-8.314959e-05
79	0x3b5e8963	0.00339564
80	0x3a9c38f7	0.0011918832
81	0x3980f16e	0.00024593942
82	0xbb2d40fd	-0.002643644
83	0xb8ab3815	-8.1643615e-05
84	0x3b936a16	0.0044987304
85	0xbb83837d	-0.0040134774
86	0x3bce3aa7	0.006293613
87	0x382cbf1a	4.1185973e-05
88	0xba0f330b	-0.0005462623
89	0xbab75818	-0.0013988046
90	0xb9ad1801	-0.00033015016
91	0x3b95fa21	0.004576937
92	0xbad7ae04	-0.0016455059
93	0xbc043a7b	-0.008070583
94	0x3b77b92b	0.0037799578
95	0xb9a467a9	-0.0003135775
96	0xbb9c264f	-0.004765309
97	0xbb2c16c4	-0.0026258687
98	0xbc34773c	-0.011014756
99	0x3b63ed24	0.0034778798
100	0x3c1421de	0.009041278
101	0xbaf50441	-0.0018693284
102	0x3b584d91	0.0033005218
103	0x3bab62f0	0.0052303
104	0x39a8dce2	0.00032208028
105	0xbb7eef8c	-0.0038900105
106	0x3b88fc84	0.004180493
107	0xbb0b0d61	-0.0021217691
108	0xbaea4e90	-0.0017876197
109	0xbba914e3	-0.0051599606
110	0x3b44e3ee	0.0030043083
111	0x3af4a0d6	0.0018663656
112	0x3b32b6c0	0.0027269572
113	0xbb57d584	-0.0032933662
114	0x3c2dab6c	0.010599952
115	0x3c01767f	0.007901787
116	0x3bc271d5	0.00593398
117	0x3b3b3cef	0.0028570255
118	0xbb436b7c	-0.0029818704
119	0x3af0d7eb	0.0018374895
120	0x3c9811b6	0.018563133
121	0xbad6dbc6	-0.0016392402
122	0xbc0d8b73	-0.008639204
123	0x3c1bb211	0.009502904
124	0xbaa9b884	-0.0012948667
125	0xbb2eeecf	-0.0026692634
126	0x3be12c29	0.0068717194
127	0xbaaee606	-0.0013343699

critic_representation.pursuer_0.model.0.weight f4 [128, 1360]
0	0x3d539218	0.051652998
1	0xbceae2ab	-0.028672537
2	0xbd07c46e	-0.033146314
3	0x3c6db142	0.014507594
4	0x3d04fd7d	0.032468308
5	0xbc994047	-0.018707408
6	0xbd19c2cf	-0.0375393
7	0x3b4a2923	0.0030847273
8	0x3c0011d3	0.00781675
9	0x3a01ba6f	0.000494874
10	0x3d49ec1c	0.049297437
11	0xba9db6b2	-0.0012032597
12	0x3c3e754b	0.0116246445
13	0xbcad9d6d	-0.02119323
14	0xbc421462	-0.01184568
15	0xbd230d32	-0.039807506
16	0x3b63a709	0.0034737012
17	0xbbd99d45	-0.0066410624
18	0x3d07acc4	0.033123747
19	0xbc561c08	-0.013068207
20	0xbd532a38	-0.051553935
21	0xba9a81d5	-0.001178796
22	0x3c2640ee	0.010147316
23	0xbd536cea	-0.05161754
24	0xbc1cdc5d	-0.009574023
25	0xbc9e7c72	-0.01934645
26	0xbc5211c1	-0.012821616
27	0x3c9cd280	0.019143343
28	0xbc17bd25	-0.009261404
29	0x3d5bc126	0.053650998
30	0x3c220492	0.009888785
31	0xbcaea5f4	-0.021319367
32	0xbbfb2cfe	-0.0076652756
33	0x3ca3e061	0.020004453
34	0xbc9897a7	-0.018627001
35	0xbc31b7e9	-0.01084707
36	0xbd23de49	-0.04000691
37	0x3c8dc538	0.017305955
38	0x3cd3f0bb	0.025871625
39	0xbc9a465c	-0.018832378
40	0x3d4b4386	0.049624942
41	0x3d8b1345	0.06790785
42	0x3c81cc9c	0.015844636
43	0x3b80555b	0.003916425
44	0x3a1d6ecf	0.00060055865
45	0x3c93f222	0.018059794
46	0xbd105c8c	-0.03524451
47	0x3cb1c637	0.021700962
48	0xbc0cf8ce	-0.008604242
49	0x3c470426	0.012146985
50	0x3c603486	0.013684398
51	0x3c0a41bd	0.008438525
52	0x3c67b1c0	0.0141415
53	0xbcbc3cff	-0.022978304
54	0xbc99baf3	-0.018765902
55	0xbbab69ed	-0.005231133
56	0x3bb1448e	0.0054097837
57	0x3ce640de	0.028107103
58	0xbceda6b9	-0.029010164
59	0x3c946866	0.018116187
60	0xbd3d6d81	-0.04624701
61	0xbc7c2c3d	-0.015391407
62	0x3d19fbc5	0.03759362
63	0xbccbf14f	-0.024895338
64	0x3d03ba98	0.03216037
65	0xbbe616a5	-0.0070217424
66	0x3d33b208	0.043870956
67	0xbcba2a55	-0.022725264
68	0x3d434792	0.047675677
69	0x3c346954	0.01101144
70	0x3d166bed	0.03672402
71	0xbca1b851	-0.01974121
72	0x3d306084	0.043060794
73	0xbcb6db8d	-0.022321487
74	0xbd760247	-0.060060766
75	0xbbbea443	-0.0058179214
76	0x3ca2445b	0.019807985
77	0xbda2904f	-0.07937681
78	0x3c525c5b	0.012839402
79	0x3cd8e7d8	0.02647774
80	0x3cc4aaa4	0.024007149
81	0xbbee077c	-0.007264076
82	0xbd43b523	-0.047780167
83	0xbc8626cb	-0.01637592
84	0x3d2e46f9	0.042548154
85	0xbce2ac85	-0.027670154
86	0x3c22bbc2	0.00993246
87	0xbc9e9b6c	-0.01936122
88	0x3c51fd9b	0.012816812
89	0x3c0a6d28	0.008448876
90	0xbae551de	-0.0017495712
91	0x3c055c2d	0.008139652
92	0xbccac930	-0.024754137
93	0xbc1ee3eb	-0.009697895
94	0xbcf26215	-0.029587785
95	0x3cbdc5b7	0.023165567
96	0x3d0cfc88	0.03442052
97	0xbbeec978	-0.0072872005
98	0x3d168c3f	0.036754843
99	0xbcdc3b44	-0.026883729
100	0x3d22ebea	0.039775766
101	0x3c49e6c8	0.012323089
102	0xbcebeda1	-0.028799834
103	0xbc1eec91	-0.0096999565
104	0x3cc0b0c3	0.023521787
105	0xbc3e1439	-0.011601501
106	0xbc35e962	-0.011103006
107	0x3c2f8804	0.010713581
108	0x3bc34ae2	0.0059598545
109	0xbb5e811f	-0.0033951474
110	0xbcaf2c5a	-0.021383453
111	0x3d13a16f	0.036042627
112	0x3c12ffd8	0.008972131
113	0xbaba0f95	-0.0014195318
114	0xbcee7d77	-0.02911256
115	0xbd00513e	-0.03132748
116	0x3cf6771f	0.030086098
117	0xbd7f9c89	-0.062405143
118	0xbc693de8	-0.014235951
119	0x3bdb8056	0.0066986484
120	0xbc9e0872	-0.019291136
121	0xbd5ae353	-0.05343945
122	0xbbac548f	-0.0052591036
123	0x3d0b026c	0.033937857
124	0xbd598709	-0.053107295
125	0xbc681f0a	-0.014167557
126	0x3d044801	0.03229523
127	0x3cac9753	0.02106825
128	0x3aae2aad	0.0013287865
129	0x3cd67c04	0.026182182
130	0xbb8c01fc	-0.0042726975
131	0xbc05ba78	-0.008162133
132	0x3ce8ed88	0.028433576
133	0xbcde3255	-0.02712361
134	0x3c337295	0.010952611
135	0x3c4794e7	0.012181497
136	0xbd4311e2	-0.047624476
137	0x3c4a62a8	0.012352623
138	0x3c41f784	0.0118387975
139	0x3c744f5e	0.014911501
140	0x3cc6a183	0.024246937
141	0xbca47bb7	-0.020078523
142	0xbc224606	-0.00990439
143	0x3c22fdd6	0.0099482145
144	0xbd0094ef	-0.031392034
145	0xbd1b1eac	-0.037871048
146	0xbc2fa41a	-0.010720277
147	0x3d1f592f	0.03890341
148	0x3ccbcdf3	0.024878478
149	0xbac7e0cf	-0.0015249493
150	0x3d1e4491	0.03863961
151	0xbc002c7f	-0.007823109
152	0x3cbb3e39	0.022856819
153	0xbce04621	-0.02737719
154	0x3d6fa9dd	0.058511604
155	0xbb9248e2	-0.0044642547
156	0xbc70b7c1	-0.014692248
157	0x3be3bd1d	0.0069500343
158	0xbd015f24	-0.031584874
159	0xbcc5e056	-0.024154823
160	0x3b8de8ea	0.004330744
161	0xbd8381e2	-0.064212576
162	0x3c5853b8	0.013203554
163	0xbb5823b3	-0.0032980263
164	0xbcaa8a2f	-0.020817844
165	0x3ca87084	0.020561464
166	0x3d0ba966	0.034097098
167	0x3d1c148b	0.03810553
168	0xbd365c9f	-0.044521924
169	0x3c2f8b8c	0.010714423
170	0xbc7deece	-0.01549883
171	0xb8a6286c	-7.923026e-05
172	0xbc5370eb	-0.01290534
173	0x3b0beb8c	0.0021350114
174	0xbcb07954	-0.021542229
175	0xbc6018ec	-0.013677817
176	0x3c4c7e43	0.012481275
177	0xbb4660ae	-0.0030270028
178	0x3b9353ac	0.0044960584
179	0xbd4142d3	-0.04718287
180	0x3bad25d0	0.0052840486
181	0x3c65a7cf	0.0140170595
182	0xbd38bdad	-0.045102764
183	0x3d1c6b7d	0.038188446
184	0x3d4949ea	0.049142756
185	0x3b91f036	0.004453684
186	0x3bf35a58	0.0074265413
187	0x3d30c948	0.043160707
188	0xbc5b71a6	-0.013393795
189	0x3d8fd185	0.070223846
190	0x3b75941e	0.0037472318
191	0x3cf5d6db	0.030009678
192	0x3d1acf0b	0.037795108
193	0x3cc3c867	0.02389927
194	0x3d01e9c9	0.031717096
195	0xbd18231a	-0.03714285
196	0xbc9a3664	-0.018824764
197	0x3bd9cd0e	0.006646759
198	0xbca5b9e5	-0.020230243
199	0x3b2a6c8b	0.0026004638
200	0xbce347ee	-0.02774426
201	0xbce73f1d	-0.028228337
202	0x3ccf0d6e	0.025274958
203	0x3cbfec6e	0.023428168
204	0x3cc14f4c	0.023597382
205	0x3bfb637e	0.0076717725
206	0xbc6f5628	-0.014607944
207	0x3cf316df	0.029673992
208	0xbbb4b37b	-0.00551456
209	0x3d2b6d13	0.04185207
210	0xbc6c19dd	-0.014410463
211	0x3d26f77d	0.040763367
212	0xbd2acdce	-0.041700177
213	0xbd89ce87	-0.06728845
214	0xbd15c6db	-0.036566596
215	0x39ff0a89	0.0004864524
216	0x3d0cf790	0.03441578
217	0x3c8a4658	0.016879246
218	0x3be5d15c	0.007013483
219	0x3c16adfd	0.0091967555
220	0x3d208745	0.039191503
221	0x3d2413e6	0.04005804
222	0xbcb6caee	-0.022313561
223	0x3c94c342	0.018159512
224	0x3a32b85d	0.00068176334
225	0x3bf5d578	0.007502254
226	0xbcf385bd	-0.029726857
227	0xbcc25213	-0.023720777
228	0x3cbf4b90	0.02335146
229	0xbc3972f2	-0.011318909
230	0x3cb3ee9b	0.021964362
231	0x3c482719	0.012216353
232	0xbc14732e	-0.009060664
233	0x3c7e05a7	0.015504277
234	0xbcc959ad	-0.024578894
235	0x3c79bc5d	0.015242663
236	0x3d0863bb	0.033298235
237	0xbd12fb55	-0.03588422
238	0xbd8106b2	-0.06300105
239	0x3c73587d	0.01485264
240	0xbb1ba1c2	-0.0023747538
241	0xbd2a5072	-0.041580625
242	0x3c11dde4	0.0089030005
243	0xbc6b473e	-0.014360247
244	0x3c5532f3	0.0130126355
245	0xbd3a33cd	-0.045459557
246	0xbc6b2d4e	-0.014354063
247	0x38cf9ef2	9.900135e-05
248	0x3ca558f5	0.02018402
249	0xbbb73020	-0.0055904537
250	0xbcb2b807	-0.021816267
251	0xbc60d1df	-0.013721912
252	0x3c3f671e	0.0116823
253	0xbacbe438	-0.0015555685
254	0x3caa6fd8	0.020805284
255	0xbcf9b712	-0.030482803

critic_representation.pursuer_0.model.0.bias f4 [128]
0	0xba9f8916	-0.0012171592
1	0xbb904a8e	-0.004403419
2	0xbb074780	-0.0020641983
3	0xbaf691c0	-0.0018811747
4	0xbb42764b	-0.002967256
5	0xbc09a653	-0.008401471
6	0x3c74ec2e	0.014948888
7	0xbb39068d	-0.0028232664
8	0xbb4b9544	-0.003106431
9	0xbaf5f8e5	-0.0018766193
10	0xbb81fd00	-0.0039669275
11	0xbb8a8cdf	-0.004228219
12	0xbb0ea5c9	-0.0021766296
13	0xbb118721	-0.0022205787
14	0xbac8d00c	-0.0015320792
15	0xbb409f3a	-0.0029391781
16	0x3c57e8c9	0.013178059
17	0xba16afcc	-0.00057482417
18	0xbba3a2a0	-0.0049937516
19	0xbb19f5b8	-0.0023492407
20	0xbafb1ec9	-0.0019158955
21	0xbc2a91c8	-0.0104107335
22	0xbacef1ae	-0.0015788579
23	0xbabf07eb	-0.0014574503
24	0xbb11c31c	-0.0022241538
25	0xbad335f8	-0.0016114106
26	0x3c1780da	0.009247029
27	0x00000000	0.0
28	0xbb23f2d7	-0.002501657
29	0xbb65c2e2	-0.0035058786
30	0xbb00de5f	-0.0019663794
31	0xba7570c4	-0.00093628117
32	0xbb108f88	-0.0022058208
33	0xb8da0e20	-0.00010397681
34	0xbc2ada7d	-0.010428068
35	0xbac91573	-0.0015341475
36	0xbaeac888	-0.0017912546
37	0xba4dd7d0	-0.0007852288
38	0xbb0f8687	-0.0021900253
39	0x3c5313e4	0.01288316
40	0xbafb70a0	-0.0019183345
41	0xbae2f8f1	-0.0017316622
42	0xbc2cb4f7	-0.010541192
43	0xba8ede08	-0.0010899911
44	0xbaed914d	-0.0018124968
45	0x3c078574	0.008271564
46	0x00000000	0.0
47	0xbc270e7a	-0.010196323
48	0x3ab3e60c	0.0013725176
49	0x00000000	0.0
50	0x39ca264c	0.00038556976
51	0xbbe373c0	-0.0069412887
52	0xbacbe782	-0.0015556666
53	0xbad4eff9	-0.0016245834
54	0xbbc1ab85	-0.0059103393
55	0xbae2a3c3	-0.0017291236
56	0xbabb2002	-0.0014276507
57	0xba917cfd	-0.0011099871
58	0xbaddd62a	-0.0016924788
59	0xbb2c19c1	-0.0026260468
60	0x3c45c477	0.012070767
61	0xbc65b997	-0.014021299
62	0x3ab1c4b4	0.001356265
63	0xbbea5150	-0.0071508065
64	0xbbf21c5a	-0.0073886337
65	0xbb02af59	-0.001994094
66	0xbb3b9f0e	-0.002862874
67	0xbae37bf8	-0.0017355671
68	0xbb1ded00	-0.0024097562
69	0xbc32c19f	-0.010910421
70	0xbabe8a86	-0.0014537133
71	0xbb18f182	-0.002333731
72	0x3c52f72c	0.012876313
73	0x3c549c39	0.0129766995
74	0x3afa6731	0.001910424
75	0xbb237a2e	-0.002494465
76	0x3c9be2f7	0.019029124
77	0xbaf5f572	-0.0018765165
78	0xba8b9a62	-0.0010650868
79	0x3c75ef53	0.015010673
80	0xba333d29	-0.00068374217
81	0xbb17f3b4	-0.002318603
82	0x00000000	0.0
83	0xbb32f98a	-0.0027309381
84	0xbb1cdae8	-0.002393419
85	0xbb212ab2	-0.0024592099
86	0xba726b78	-0.00092475815
87	0xbb139516	-0.0022519282
88	0xbbeec556	-0.007286708
89	0xb9b7ed6d	-0.00035081376
90	0xbb548cc1	-0.0032432529
91	0xbaa4c42a	-0.0012570668
92	0xbb1d0e02	-0.0023964648
93	0xbaec5c39	-0.0018032856
94	0x3c35b85c	0.011091318
95	0x3c5d9a5e	0.013525574
96	0xbbd375e0	-0.006453261
97	0x3a8d12ba	0.0010763027
98	0xbb3c0ab1	-0.0028692896
99	0x3b80cb13	0.0039304583
100	0xbb0641e9	-0.0020486063
101	0xbb04dd24	-0.0020273412
102	0xbafefb2e	-0.001945352
103	0xbc140184	-0.0090335645
104	0xbb028f04	-0.001992167
105	0xbaf38f53	-0.0018582143
106	0x3c3eac60	0.011637777
107	0x3c1856cc	0.009298038
108	0x3b2967ad	0.002584915
109	0xbb03a483	-0.002008707
110	0xbbdc77db	-0.006728155
111	0x3c3b04a7	0.011414683
112	0xbb4d9b6d	-0.0031373159
113	0xbb0064de	-0.0019591372
114	0xbaabd161	-0.0013108664
115	0xbaf24d25	-0.0018486126
116	0xba69d265	-0.0008919596
117	0xba34f890	-0.0006903494
118	0xbaf9922d	-0.0019040756
119	0xbb0142f7	-0.0019723752
120	0xbae52e4f	-0.0017485115
121	0xbb0119ed	-0.001969929
122	0xbb2f07c1	-0.0026707503
123	0xbaf518d9	-0.0018699422
124	0x3c87f401	0.016595842
125	0xbb1875b6	-0.002326352
126	0xbaf759ff	-0.0018871425
127	0xbac4bb6d	-0.001500947

critic_representation.pursuer_0.model.2.weight f4 [128]
0	0x3f7db78e	0.9910821
1	0x3f77b859	0.9676567
2	0x3f7f0c79	0.99628407
3	0x3f80524a	1.0025113
4	0x3f7fbc74	0.9989693
5	0x3f80c45c	1.0059924
6	0x3f84eebe	1.0385358
7	0x3f7f6ee2	0.9977857
8	0x3f7f1ac7	0.99650234
9	0x3f7e5807	0.9935307
10	0x3f788084	0.970711
11	0x3f782209	0.96926934
12	0x3f7ecd6a	0.99532187
13	0x3f7f5e31	0.997531
14	0x3f802b37	1.0013188
15	0x3f806eb4	1.0033784
16	0x3f8235ad	1.017263
17	0x3f7cc3bf	0.98736185
18	0x3f7b0a84	0.9806292
19	0x3f801121	1.0005227
20	0x3f7fa543	0.99861544
21	0x3f8167cf	1.0109805
22	0x3f807fea	1.0039036
23	0x3f8025e3	1.0011562
24	0x3f7dd5cb	0.9915435
25	0x3f7e56ac	0.99351
26	0x3f7f4d25	0.9972709
27	0x3f80f7d4	1.0075631
28	0x3f7e2202	0.9927064
29	0x3f80a607	1.0050668
30	0x3f7f2af4	0.99674916
31	0x3f8081ea	1.0039647
32	0x3f7fe9cd	0.99966127
33	0x3f7d0f1d	0.98851186
34	0x3f81e61c	1.0148349
35	0x3f7d016e	0.98830307
36	0x3f7fcfb0	0.9992628
37	0x3f7d477e	0.98937213
38	0x3f7f3097	0.9968352
39	0x3f82c5c9	1.0216609
40	0x3f7deee4	0.99192643
41	0x3f7d5e36	0.9897188
42	0x3f7eaed0	0.9948549
43	0x3f7fc603	0.99911517
44	0x3f7f7c63	0.99799174
45	0x3f7d6b4e	0.9899186
46	0x3f8073da	1.0035355
47	0x3f81930e	1.0123003
48	0x3f7ddfca	0.991696
49	0x3f7eb272	0.99491036
50	0x3f7dc0b0	0.9912214
51	0x3f80302b	1.00147
52	0x3f7fef0b	0.99974126
53	0x3f8037c3	1.0017017
54	0x3f788472	0.97077096
55	0x3f8044ae	1.0020959
56	0x3f7f509d	0.9973238
57	0x3f8097d7	1.0046338
58	0x3f7fba73	0.99893874
59	0x3f7ef50a	0.9959265
60	0x3f7dcc58	0.9913993
61	0x3f805ba0	1.0027962
62	0x3f7e999d	0.99453145
63	0x3f80cf91	1.0063344
64	0x3f7e6be3	0.9938337
65	0x3f802add	1.0013081
66	0x3f7f7b76	0.9979776
67	0x3f7e3b08	0.99308825
68	0x3f7f0965	0.9962371
69	0x3f7f890e	0.99818504
70	0x3f80af51	1.0053502
71	0x3f7edb04	0.9955294
72	0x3f819ed5	1.0126597
73	0x3f81795e	1.0115163
74	0x3f7cf3de	0.9880961
75	0x3f7ecd5e	0.99532115
76	0x3f83a11a	1.0283539
77	0x3f7c25c1	0.9849511
78	0x3f801f42	1.0009539
79	0x3f7f958c	0.99837565
80	0x3f7f422e	0.9971036
81	0x3f7e920c	0.994416
82	0x3f7ee129	0.9956232
83	0x3f7cc559	0.9873863
84	0x3f7dd254	0.9914906
85	0x3f800ad5	1.0003306
86	0x3f7d9f54	0.9907124
87	0x3f7ecd7e	0.99532306
88	0x3f81b73f	1.0134047
89	0x3f8044bf	1.002098
90	0x3f809e2e	1.0048273
91	0x3f7fefe6	0.9997543
92	0x3f7f4ad3	0.9972355
93	0x3f7fe70e	0.99961936
94	0x3f7ffd20	0.99995613
95	0x3f839826	1.0280807
96	0x3f7721c2	0.96535885
97	0x3f7d40a9	0.9892679
98	0x3f7d87cc	0.99035335
99	0x3f7d2fa0	0.98900795
100	0x3f7eb88a	0.99500334
101	0x3f7f6f1b	0.9977891
102	0x3f80ba0e	1.0056779
103	0x3f807403	1.0035404
104	0x3f7d0313	0.98832816
105	0x3f80c109	1.005891
106	0x3f7f9718	0.99839926
107	0x3f809f0b	1.0048536
108	0x3f7b69cf	0.98208326
109	0x3f7fd50f	0.99934477
110	0x3f7baa73	0.9830696
111	0x3f7d3a5c	0.98917174
112	0x3f80cc58	1.0062361
113	0x3f7ff203	0.99978656
114	0x3f7f73f0	0.9978628
115	0x3f7ed06c	0.99536777
116	0x3f7feb86	0.99968755
117	0x3f7f763f	0.99789804
118	0x3f808253	1.0039772
119	0x3f80a21c	1.0049472
120	0x3f7df562	0.9920255
121	0x3f7d84ad	0.9903057
122	0x3f7f2012	0.9965831
123	0x3f7dfd99	0.99215084
124	0x3f811085	1.0083166
125	0x3f805172	1.0024855
126	0x3f7e411a	0.9931809
127	0x3f7e50f4	0.99342275

critic_representation.pursuer_0.model.2.bias f4 [128]
0	0x3c1477e2	0.009061785
1	0x3c11c730	0.008897588
2	0x3b6f6ffc	0.0036535254
3	0xbb08b34a	-0.0020858818
4	0xbb1ce4c8	-0.0023940075
5	0x3aec3436	0.0018020931
6	0x3b5efbb2	0.0034024534
7	0x3b1d0866	0.0023961305
8	0x383bc3e6	4.476672e-05
9	0x3bc7d26d	0.0060980828
10	0x3c94d7d4	0.018169321
11	0x3c9085f7	0.017642004
12	0x3b87889c	0.004136158
13	0x3b045b7b	0.0020196128
14	0xbb251b6b	-0.0025193344
15	0xbc19278c	-0.009347808
16	0x3b297b19	0.0025860725
17	0x3c53c226	0.012924707
18	0x3bcc5130	0.0062352642
19	0xbb007e09	-0.0019606373
20	0x3ac3da63	0.0014942404
21	0x3a971db0	0.0011529233
22	0xbb8a27e6	-0.004216182
23	0xbac1ef45	-0.0014796039
24	0x3c0c8d85	0.008578663
25	0x3bc5d36c	0.0060371663
26	0x3afad948	0.0019138241
27	0xbbf9778f	-0.0076131294
28	0x3bb415c6	0.0054957597
29	0xbc086fd8	-0.008327447
30	0x3b858d64	0.004075693
31	0xbbb1bbfe	-0.0054240217
32	0xbb6ad190	-0.0035830475
33	0x3c664836	0.014055302
34	0x3987cf09	0.0002590346
35	0x3c46faae	0.012144728
36	0x3a074aa6	0.0005160965
37	0x3c34a856	0.011026463
38	0x3b777811	0.0037760774
39	0x3a4ca313	0.00078062824
40	0x3c200f36	0.009769252
41	0x3be15d26	0.0068775592
42	0xb99c3bdd	-0.0002979924
43	0x39864d59	0.000256161
44	0x3aff5688	0.0019480744
45	0x3b84094a	0.0040294277
46	0xbb89c21e	-0.004204049
47	0x3b9a853f	0.004715591
48	0x3be22d6e	0.0069023883
49	0x3bab0457	0.005219023
50	0x3b270349	0.0025484136
51	0x3b829bdd	0.0039858655
52	0x3817e2eb	3.621254e-05
53	0xbb0c2c46	-0.0021388694
54	0x3b2c0682	0.0026248996
55	0xbb4e6bec	-0.0031497432
56	0x3b1e7d59	0.00241836
57	0xbbc942d4	-0.0061419997
58	0x3ab48049	0.0013771142
59	0x3b9477ca	0.0045308815
60	0x3b3851a5	0.0028124836
61	0xbb49b679	-0.0030778928
62	0x3b696d60	0.003561817
63	0xbbd2dcc4	-0.0064350087
64	0x3b196a6d	0.0023409382
65	0xbb4f7bb2	-0.0031659422
66	0xba8d5762	-0.0010783488
67	0x3be88d4d	0.0070969225
68	0x3b095019	0.0020952283
69	0x3b180beb	0.0023200463
70	0xbbe50ed1	-0.0069902916
71	0x3ba366c3	0.0049866154
72	0x3bf2fdfc	0.007415531
73	0x3b4198a7	0.002954045
74	0x3be9cb85	0.007134857
75	0x3bb3a70d	0.0054825605
76	0xb8ddcebf	-0.00010576611
77	0x3c5bec7d	0.013423082
78	0xba327001	-0.0006806851
79	0x3c2189d5	0.009859522
80	0x3b40f322	0.0029441793
81	0x3b2e594c	0.0026603518
82	0x3b8e6fd6	0.004346828
83	0x3c34b8de	0.011030404
84	0x3b60b2f6	0.0034286357
85	0xbb87e404	-0.0041470546
86	0x3c27492c	0.010210317
87	0x3b9bd6b5	0.0047558197
88	0x3ac84955	0.0015280644
89	0xbb0db878	-0.0021624845
90	0xbba99dce	-0.0051762825
91	0xbbb29270	-0.0054495856
92	0x3b4d606d	0.0031337992
93	0x3a9727ff	0.0011532306
94	0x3be2034f	0.006897367
95	0x3a26a1b3	0.00063564925
96	0x3b829417	0.003984939
97	0x3c20cc6b	0.009814362
98	0x3c0686fe	0.008210896
99	0x3c0473b2	0.008084225
100	0x3b31ee65	0.002715015
101	0x3b49a5f3	0.003076908
102	0xbbf03752	-0.0073308134
103	0x3b67a62c	0.003534685
104	0x3be39337	0.0069450396
105	0xbbc6a7fa	-0.006062505
106	0x3ba1beb1	0.0049360623
107	0x3b1ebabf	0.0024220196
108	0x3b95a802	0.004567147
109	0x3a1ed4ed	0.000605895
110	0xbbb83dfe	-0.0056226244
111	0x3b9e3b99	0.004828882
112	0xbbe7c1b1	-0.0070726504
113	0x395f1635	0.0002127521
114	0x39ea597b	0.00044698626
115	0x3b8a8a3a	0.0042279037
116	0x3a26f437	0.00063687883
117	0x3b07d205	0.0020724547
118	0xbb87846a	-0.004135658
119	0xbba9bc44	-0.0051799137
120	0x3c0d8b66	0.008639192
121	0x3bfe4928	0.0077601857
122	0x3b2b59d1	0.0026146064
123	0x3bdbef54	0.0067118797
124	0x3be7a28b	0.007068937
125	0xbb46a8a0	-0.003031291
126	0x3b405e49	0.0029353073
127	0x3bae5c51	0.0053210636

actor.pursuer_0.logstd f4 [2]
0	0x3cc06826	0.023487162
1	0x3d624f05	0.05525114

actor.pursuer_0.mu.0.weight f4 [128, 133]
0	0xbcf63b66	-0.03005762
1	0xbc38c1b7	-0.011276654
2	0xbd9e5143	-0.07730343
3	0x3da174d5	0.07883612
4	0x3e29e83d	0.16592498
5	0xbd965f28	-0.07342368
6	0xbd2914cc	-0.0412796
7	0xbd3c4f16	-0.04597386
8	0x3d4b4571	0.04962677
9	0xbd75c7e7	-0.060005095
10	0x3de6bf57	0.11266964
11	0x3d4626e5	0.048376936
12	0x3d4c5347	0.049884107
13	0x3d9e0577	0.07715886
14	0xbd6f1a4e	-0.058374695
15	0xbd2da710	-0.04239565
16	0x3da2c662	0.07947995
17	0x3a1bebdf	0.00059479283
18	0xbe2409d5	-0.16019376
19	0x3b584804	0.003300191
20	0x3e0f9019	0.14019813
21	0xbd920e5e	-0.071316466
22	0xbb35d54d	-0.0027745545
23	0xbe25e320	-0.16199923
24	0xbdc530f0	-0.09628475
25	0xbc9c4349	-0.019075053
26	0x3d642ad6	0.055704914
27	0x3d979e11	0.07403196
28	0x3dbf54f0	0.093423724
29	0x3b0a2b05	0.002108277
30	0x3db09888	0.08622843
31	0x3dce37f9	0.1006927
32	0xbe1cc0f4	-0.15307981
33	0xbcc807c0	-0.024417758
34	0xbcecb249	-0.028893607
35	0xbe2edf57	-0.17077385
36	0x3e120ef4	0.14263517
37	0xbe19baa2	-0.15012601
38	0xbdd36f93	-0.103240155
39	0x3cf6fa8f	0.030148773
40	0xbd1c9936	-0.03823205
41	0xbdedc8fa	-0.11610599
42	0xbb25c39c	-0.0025293594
43	0xbd82063d	-0.06348846
44	0x3d583fe0	0.05279529
45	0x3dd637d3	0.104598664
46	0x3d5fb3f6	0.054614983
47	0x3a347534	0.00068839197
48	0xbe1c9bcd	-0.15293808
49	0x3db519bd	0.088428
50	0x3e72c729	0.23708786
51	0x3984124b	0.0002519063
52	0x3d1561fb	0.036470395
53	0xbda9ed70	-0.08297241
54	0xbdad91b2	-0.08475055
55	0x3de90ca1	0.11379362
56	0xbd8fc810	-0.07020581
57	0xbc64a600	-0.013955593
58	0x3c68b6c9	0.014203736
59	0x3d23e042	0.04000879
60	0xbc92e307	-0.01793052
61	0x3da8c249	0.08240182
62	0xbe001e4c	-0.12511557
63	0xbda81f5c	-0.08209106
64	0xbe06199b	-0.13095705
65	0x3ccd331a	0.025048781
66	0x3e85901d	0.26086512
67	0x3cf71e77	0.030165894
68	0x3cf31ab4	0.029675819
69	0x3e51db34	0.20493776
70	0x3d898f67	0.06716805
71	0xbd64682d	-0.055763412
72	0x3ddc12da	0.10745783
73	0x3cad63fd	0.021165842
74	0x3d21978e	0.039451174
75	0xbc5eca04	-0.013597969
76	0x3cc641c4	0.024201281
77	0x3c1edfda	0.009696925
78	0xbc796f6c	-0.015224319
79	0xbd7dbb72	-0.06194634
80	0x3cc2be9f	0.023772536
81	0x3cd9d38c	0.026590131
82	0xbd0239c0	-0.031793356
83	0x3d836a7b	0.06416794
84	0xbcd40d7f	-0.025885342
85	0x3cc8923a	0.024483789
86	0x3c7f6066	0.015586948
87	0xbd8f97f1	-0.070114024
88	0xbd6765aa	-0.05649344
89	0xbd34bf05	-0.044127483
90	0xbcc3c93d	-0.023899669
91	0xbade72d6	-0.001697148
92	0x3d604e84	0.05476238
93	0x3d961b98	0.07329482
94	0x3ceca754	0.028888382
95	0x3dfd6d47	0.123743586
96	0x3d95d0f9	0.07315249
97	0x3e61c908	0.22049344
98	0x3da05354	0.078283936
99	0x3d7531a0	0.05986178
100	0xbd4440dd	-0.04791342
101	0x3b49344a	0.0030701333
102	0x3d00ae89	0.03141645
103	0x3c38cad7	0.01127883
104	0x3de19ed2	0.11016621
105	0xbb98e782	-0.0046662698
106	0x3db91e54	0.09038988
107	0xbd10e535	-0.03537484
108	0xbd5db12d	-0.054124046
109	0x3e0e5d1b	0.13902704
110	0x3e090085	0.13379104
111	0xbd5e1ffa	-0.054229714
112	0x3d65ed77	0.056134667
113	0xbd84b719	-0.064802356
114	0x3cb69fb7	0.022292955
115	0x3dd82054	0.10553041
116	0x3ced019b	0.02893143
117	0x3db37bcc	0.08763847
118	0xbcece1f5	-0.028916338
119	0x3d06339c	0.032764062
120	0x3da72960	0.081621885
121	0xbe2227e4	-0.1583553
122	0x3de87f53	0.1135241
123	0x3dbe1417	0.092811756
124	0xbd935e81	-0.071957596
125	0x3ded1bb3	0.11577549
126	0x3e11cdc1	0.14238645
127	0x3d4e1bd9	0.050319526
128	0xbb78731f	-0.0037910414
129	0xbdcbc454	-0.09949556
130	0x3e4b3965	0.19846113
131	0x3ded7e10	0.1159631
132	0xbd876138	-0.0661034
133	0x3e11f806	0.1425477
134	0xbe0d179b	-0.13778536
135	0xbd06f2af	-0.032946285
136	0x3e341652	0.1758664
137	0x3e20ae09	0.15691389
138	0xbc9eb33a	-0.019372571
139	0x3da96d88	0.082728446
140	0xbd27a326	-0.040927075
141	0x3d9e39b0	0.07725847
142	0x3dd888eb	0.1057299
143	0x3d703fd2	0.058654614
144	0x3da2ceb1	0.079495795
145	0xbdb410d1	-0.0879227
146	0x3cb3b229	0.02193554
147	0x3d285193	0.04109342
148	0x3dd707f7	0.10499566
149	0x3c2380c1	0.009979428
150	0x3d6d083f	0.057869192
151	0xbd8632d6	-0.06552665
152	0x3e2669cf	0.162513
153	0x3d98147a	0.074257806
154	0x3c8fb0bc	0.017540328
155	0x3e268286	0.16260728
156	0x3be3ba57	0.0069497037
157	0xbd8d077e	-0.06886195
158	0x3d08f771	0.033439104
159	0x3dc78483	0.097420715
160	0xbccf8838	-0.025333509
161	0xbdf8edce	-0.12154733
162	0x3dcbd892	0.09953417
163	0x3ccb6e26	0.024832796
164	0x3e07ac4b	0.13249318
165	0xbd87797d	-0.06614969
166	0xbc6f3004	-0.01459885
167	0x3d5f8ece	0.05457955
168	0x3c18cb2b	0.009325783
169	0x3d485fe0	0.04891956
170	0x3db2500d	0.08706675
171	0x3df0f1df	0.11764883
172	0xbde3b686	-0.11118798
173	0xbd6c04ce	-0.05762177
174	0x3ce15f13	0.027511155
175	0x3d69b1f7	0.057054486
176	0x3e1852fd	0.14875408
177	0x3d085625	0.03328528
178	0xbbef1daa	-0.0072972374
179	0xbd4ceab5	-0.05002852
180	0xbd838e3e	-0.06423615
181	0x3d2d4f1a	0.042311765
182	0xbd945feb	-0.072448574
183	0xbba641f0	-0.0050737783
184	0xbd30c111	-0.043152872
185	0x3dd1cb5a	0.10243864
186	0xbd496a43	-0.049173605
187	0xbbe45f47	-0.0069693658
188	0x3e1ee9fa	0.15518942
189	0xbd79155b	-0.06081138
190	0xbda15fa2	-0.07879569
191	0x3c8b1b0c	0.01698067
192	0xbde7f9f0	-0.11326969
193	0x3e013208	0.12616742
194	0xbe6393a0	-0.22224283
195	0x3d7ab7a8	0.061210304
196	0xbbc9cd2a	-0.0061584907
197	0x3d5620df	0.052277442
198	0xbda8d827	-0.08244353
199	0x3e2bc4f2	0.16774347
200	0x3e05d634	0.13069993
201	0x3da6f629	0.0815242
202	0xbd122366	-0.03567829
203	0xbd102267	-0.03518906
204	0xbd3d35f5	-0.046194036
205	0x3dd97e02	0.10619737
206	0x3d2f3dda	0.042783596
207	0x3d13ee12	0.036115713
208	0x3d95d39c	0.07315752
209	0x3da02259	0.07819051
210	0xbdb54c61	-0.08852459
211	0x3dfb07cf	0.12257349
212	0xbd923142	-0.071383014
213	0xbdf17591	-0.11790002
214	0x3c03e2aa	0.008049646
215	0xbe144dc0	-0.14482784
216	0xbcdb9989	-0.02680661
217	0xbc1d8a78	-0.009615533
218	0x3d9211a7	0.07132273
219	0x3e00f098	0.12591779
220	0xbd959389	-0.07303531
221	0x3e4c1335	0.19929202
222	0xbd6db686	-0.058035396
223	0xbe19a03d	-0.15002532
224	0x3cf0e116	0.029404204
225	0xbd9a8d5d	-0.07546494
226	0xbc864572	-0.016390536
227	0x3b9d5748	0.0048016645
228	0xbd9bbd87	-0.07604509
229	0x3d78a97a	0.0607085
230	0xbc92bccf	-0.017912297
231	0xbd967550	-0.07346594
232	0x3e1526b8	0.14565551
233	0x3d5feb0d	0.05466752
234	0xbdb3065f	-0.087414496
235	0xbcd43dd2	-0.025908384
236	0x3d0b6787	0.03403428
237	0xbdfe8ea1	-0.12429548
238	0x3cc1e98e	0.023670938
239	0xbe069174	-0.13141423
240	0x3e81375d	0.2523755
241	0x3cf3107e	0.02967095
242	0xbbc5e233	-0.006038928
243	0xbdbd92fb	-0.0925655
244	0x3dcb0da8	0.09914714
245	0xbdba7abc	-0.09105441
246	0x3dadda36	0.08488886
247	0x3e0f74ce	0.14009401
248	0x3dae152b	0.08500131
249	0x3d7664d1	0.06015474
250	0xbdd64360	-0.104620695
251	0xbc961426	-0.018320154
252	0xbd0c371b	-0.03423224
253	0x3d138fcd	0.03602581
254	0xbdd10836	-0.10206644
255	0xbdb9c40f	-0.09070598

actor.pursuer_0.mu.0.bias f4 [128]
0	0xb91333b6	-0.00014038276
1	0xbc67e376	-0.014153352
2	0x3a76b0c1	0.00094104937
3	0xbc27d30d	-0.0102431895
4	0xbb890bc7	-0.004182312
5	0x3b26d3ff	0.002545595
6	0xbc9e6e2c	-0.019339643
7	0xbb979aa9	-0.004626591
8	0x3a0fbaea	0.00054828695
9	0xbc143b50	-0.009047344
10	0xbb8f62f8	-0.0043758117
11	0x3acf41a6	0.0015812411
12	0x3a9e65d5	0.0012084792
13	0xbc0e0491	-0.008668081
14	0xbc27780e	-0.010221494
15	0xbc0eb80e	-0.008710874
16	0xba88cae2	-0.001043644
17	0x3bc55cc5	0.006023022
18	0xbb71115c	-0.0036784029
19	0xbc8a62dd	-0.016892845
20	0x3bd58c97	0.0065170038
21	0x3b915c83	0.004436077
22	0xbc50a5c5	-0.012734835
23	0x3b122f14	0.0022305893
24	0x3ae244c4	0.0017262925
25	0xbba47bb0	-0.0050196275
26	0xbc15f238	-0.009151988
27	0xbb87f30a	-0.0041488456
28	0xbb65aa0f	-0.003504399
29	0xbaed4337	-0.0018101697
30	0xbb72daf4	-0.0037056776
31	0xbc2f0bd4	-0.010683972
32	0xbb616ae0	-0.0034395978
33	0xbb8db1c3	-0.0043241694
34	0xb939d1bb	-0.00017721106
35	0xbbef644a	-0.0073056566
36	0x3ac7e793	0.001525151
37	0x3c15837b	0.009125586
38	0xbc65a009	-0.014015206
39	0xbb5f8f17	-0.0034112388
40	0xbc685648	-0.014180727
41	0x3b5b728b	0.003348502
42	0xbb49bd91	-0.0030783156
43	0x3b8366b8	0.0040100478
44	0xbca2591c	-0.019817881
45	0xbba7243f	-0.0051007564
46	0xbc52e097	-0.012870929
47	0xbc630f6a	-0.0138586555
48	0xbc4ef0a7	-0.012630618
49	0x3beeda20	0.007289186
50	0xbafe8336	-0.0019417766
51	0xbb5ad24b	-0.0033389505
52	0x3bb61d7a	0.005557713
53	0xbc0c0061	-0.008545012
54	0x3ba02b8e	0.0048880046
55	0xbb5ab4e5	-0.0033371982
56	0xbb2877ee	-0.002570625
57	0x3c08fe76	0.008361449
58	0xbc79628e	-0.015221251
59	0xbbe79812	-0.0070676887
60	0xbc6abaab	-0.014326732
61	0xbc050d66	-0.00812087
62	0xbb874ae5	-0.004128801
63	0xbab37d36	-0.0013693932
64	0xbb17ce33	-0.0023163676
65	0xbb59a7de	-0.003321163
66	0xbb93d002	-0.0045108804
67	0xbb65a25a	-0.0035039396
68	0xbae04cc0	-0.0017112717
69	0x3c28c774	0.01030146
70	0x3beb475e	0.0071801385
71	0x3c46d8d8	0.0121366605
72	0x3c8e7a4c	0.0173923
73	0xbb2eec82	-0.0026691263
74	0xbbbadcf2	-0.0057026083
75	0x3bc1f041	0.005918533
76	0x3b2ba33a	0.002618982
77	0xbb5999fb	-0.0033203352
78	0xbb71a2be	-0.0036870684
79	0x3a4bb1ae	0.0007770312
80	0xbc341a66	-0.010992622
81	0x3b81842f	0.003952525
82	0xbb7de1c7	-0.003873931
83	0xbb1e3fc5	-0.0024146896
84	0xba4c16a1	-0.00077853544
85	0xbc4af79f	-0.012388139
86	0x3b3018c9	0.0026870242
87	0xbc50d565	-0.01274619
88	0x3b747ac9	0.003730463
89	0xba58d437	-0.00082713686
90	0x3b204795	0.0024456729
91	0xbc98a3ec	-0.018632852
92	0xbbd79dec	-0.006580105
93	0xbb31d846	-0.0027136966
94	0xb9dc2e8f	-0.0004199636
95	0xbc1ec4f3	-0.009690511
96	0x3c0db5eb	0.00864933
97	0x3ba8d54f	0.0051523815
98	0x3a9007c9	0.0010988648
99	0x382c86d1	4.1133553e-05
100	0x3ad5d7ac	0.0016314886
101	0xbb888bd7	-0.004167061
102	0x3b9df177	0.0048200446
103	0x3a77444f	0.0009432481
104	0xbbf99b33	-0.007617378
105	0xbc6d87d6	-0.014497718
106	0xbbb9e2a9	-0.005672772
107	0xbbf02fdb	-0.0073299236
108	0x3b6ed607	0.0036443488
109	0x3ba51294	0.005037615
110	0xbb645a8f	-0.0034844016
111	0x3b9e9823	0.0048399135
112	0xbb76bef9	-0.003765045
113	0xbb973f0b	-0.0046156696
114	0xbc1d5e0c	-0.009604942
115	0x3c57b206	0.013165003
116	0xbad40f9b	-0.0016178967
117	0xbc34de61	-0.011039347
118	0xbbcb685a	-0.006207508
119	0xbc01b64b	-0.007916997
120	0x3b4a9989	0.0030914268
121	0xbbbb95be	-0.005724638
122	0x3b8d396d	0.004309824
123	0xbbde1f56	-0.006778638
124	0xbc970f99	-0.018440055
125	0xbb3895c2	-0.0028165434
126	0x3b90562e	0.0044048047
127	0x3c6bc422	0.014390023

actor.pursuer_0.mu.2.weight f4 [128]
0	0x3f80509f	1.0024604
1	0x3f7fad69	0.9987398
2	0x3f7f0268	0.99613047
3	0x3f7f13e7	0.99639744
4	0x3f7de7aa	0.99181616
5	0x3f7f6c05	0.997742
6	0x3f801a3c	1.0008006
7	0x3f7e2138	0.9926944
8	0x3f7b2abf	0.981121
9	0x3f7f48e5	0.99720603
10	0x3f7e961a	0.99447787
11	0x3f8049a6	1.0022476
12	0x3f8047b6	1.0021884
13	0x3f800d9e	1.0004156
14	0x3f7fd331	0.9993163
15	0x3f7e824b	0.9941756
16	0x3f8023e1	1.0010949
17	0x3f7f5fde	0.99755657
18	0x3f821425	1.0162398
19	0x3f804a70	1.0022717
20	0x3f7fa028	0.99853754
21	0x3f805cb7	1.0028294
22	0x3f7f3149	0.9968458
23	0x3f804b7d	1.0023037
24	0x3f7eec38	0.9957919
25	0x3f7e3e5b	0.99313897
26	0x3f7ec49a	0.9951874
27	0x3f7f9e9a	0.9985138
28	0x3f79e2a6	0.97611463
29	0x3f7decf0	0.9918966
30	0x3f804a60	1.0022697
31	0x3f7ff76a	0.999869
32	0x3f8021ee	1.0010355
33	0x3f84bffa	1.0371087
34	0x3f802196	1.001025
35	0x3f7f1f94	0.9965756
36	0x3f7f0dd8	0.996305
37	0x3f7f74dd	0.99787694
38	0x3f7e05fe	0.99227893
39	0x3f7ea096	0.99463785
40	0x3f7e50ac	0.99341846
41	0x3f808277	1.0039815
42	0x3f7e980a	0.99450743
43	0x3f814ab7	1.0100926
44	0x3f800053	1.0000099
45	0x3f83450d	1.0255448
46	0x3f800d64	1.0004086
47	0x3f7f1a21	0.99649245
48	0x3f7edaa6	0.9955238
49	0x3f8017cd	1.0007263
50	0x3f8005d4	1.0001779
51	0x3f818cf4	1.012114
52	0x3f7f0c58	0.9962821
53	0x3f7ec70b	0.99522465
54	0x3f7e743d	0.99396116
55	0x3f7c4a52	0.98550904
56	0x3f7baba9	0.9830881
57	0x3f7f4bd2	0.9972507
58	0x3f7fbad9	0.9989448
59	0x3f7dbfb3	0.99120635
60	0x3f7f6b11	0.99772745
61	0x3f802610	1.0011616
62	0x3f7ca144	0.9868357
63	0x3f7d2420	0.9888325
64	0x3f7f8855	0.998174
65	0x3f7fde69	0.99948746
66	0x3f7f316e	0.996848
67	0x3f7e9238	0.9944186
68	0x3f808a5c	1.0042224
69	0x3f7f6507	0.9976353
70	0x3f7ca9c0	0.9869652
71	0x3f7c7aa4	0.98624635
72	0x3f7e881e	0.9942645
73	0x3f7eede8	0.99581766
74	0x3f7faf72	0.99877083
75	0x3f803e24	1.0018964
76	0x3f7f33e6	0.99688566
77	0x3f7c2aae	0.98502624
78	0x3f7e08cc	0.9923217
79	0x3f7bb5df	0.9832439
80	0x3f803b8c	1.0018172
81	0x3f7fcf6c	0.99925876
82	0x3f7fb8e1	0.9989148
83	0x3f815023	1.0102581
84	0x3f7db012	0.99096787
85	0x3f7f8950	0.998189
86	0x3f7d054a	0.98836195
87	0x3f800999	1.0002929
88	0x3f804c2b	1.0023245
89	0x3f77cbe7	0.96795505
90	0x3f7f05fd	0.9961851
91	0x3f7ff6e4	0.999861
92	0x3f7f8121	0.9980641
93	0x3f7ea6e3	0.994734
94	0x3f7d19c1	0.9886742
95	0x3f7f9b3b	0.9984624
96	0x3f800dda	1.0004227
97	0x3f7f2818	0.99670553
98	0x3f7d976a	0.99059165
99	0x3f7d5d50	0.9897051
100	0x3f7e6be7	0.99383396
101	0x3f7fc4fa	0.9990994
102	0x3f806271	1.0030042
103	0x3f7c01f1	0.9844046
104	0x3f7f6f06	0.99778783
105	0x3f7e6e8a	0.9938742
106	0x3f816467	1.0108765
107	0x3f7ebc1f	0.995058
108	0x3f7fdd0d	0.9994667
109	0x3f7ee43c	0.9956701
110	0x3f7e3417	0.9929823
111	0x3f82d4e5	1.022122
112	0x3f7d9656	0.9905752
113	0x3f7c0d19	0.98457485
114	0x3f7ea611	0.9947215
115	0x3f7f90ca	0.99830306
116	0x3f802f4d	1.0014435
117	0x3f8012a3	1.0005687
118	0x3f7e403f	0.9931678
119	0x3f802e65	1.0014158
120	0x3f7fce71	0.9992438
121	0x3f7f385a	0.9969536
122	0x3f7fcb46	0.99919546
123	0x3f7f9378	0.99834394
124	0x3f801c87	1.0008706
125	0x3f805649	1.0026332
126	0x3f7d6101	0.9897614
127	0x3f7f96bf	0.99839395
